…
    col_rotate {
      rand_type: "uniform_bernoulli"
      exp: false
      mean: 0
      spread: 1
      prob: 1
    }
    crop_width: 768
    crop_height: 384
    chromatic_eigvec: 0.51
    chromatic_eigvec: 0.56
    chromatic_eigvec: 0.65
    chromatic_eigvec: 0.79
    chromatic_eigvec: 0.01
    chromatic_eigvec: -0.62
    chromatic_eigvec: 0.35
    chromatic_eigvec: -0.83
    chromatic_eigvec: 0.44
    noise {
      rand_type: "uniform_bernoulli"
      exp: false
      mean: 0.03
      spread: 0.03
      prob: 1
    }
  }
}
layer {
  name: "aug_params1"
  type: "GenerateAugmentationParameters"
  bottom: "blob6"
  bottom: "blob3"
  bottom: "img0_aug"
  top: "blob7"
  coeff_schedule_param {
    half_life: 50000
    initial_coeff: 0.5
    final_coeff: 1
  }
  augmentation_param {
    augment_during_test: false
    gamma {
      rand_type: "gaussian_bernoulli"
      exp: true
      mean: 0
      spread: 0.01
      prob: 1
    }
    brightness {
      rand_type: "gaussian_bernoulli"
      exp: false
      mean: 0
      spread: 0.01
      prob: 1
    }
    contrast {
      rand_type: "gaussian_bernoulli"
      exp: true
      mean: 0
      spread: 0.01
      prob: 1
    }
    color {
      rand_type: "gaussian_bernoulli"
      exp: true
      mean: 0
      spread: 0.01
      prob: 1
    }
  }
}
layer {
  name: "img1s_aug"
  type: "DataAugmentation"
  bottom: "blob4"
  bottom: "blob7"
  top: "img1_aug"
  propagate_down: false
  propagate_down: false
  augmentation_param {
    max_multiplier: 1
    augment_during_test: false
    recompute_mean: 1000
    mean_per_pixel: false
    crop_width: 768
    crop_height: 384
    chromatic_eigvec: 0.51
    chromatic_eigvec: 0.56
    chromatic_eigvec: 0.65
    chromatic_eigvec: 0.79
    chromatic_eigvec: 0.01
    chromatic_eigvec: -0.62
    chromatic_eigvec: 0.35
    chromatic_eigvec: -0.83
    chromatic_eigvec: 0.44
  }
}
layer {
  name: "DummyData1"
  type: "DummyData"
  top: "blob9"
  include {
    phase: TRAIN
  }
  dummy_data_param {
    data_filler {
      type: "constant"
      value: 0
    }
    num: 4
    channels: 1
    height: 540
    width: 960
  }
}
layer {
  name: "Concat1"
  type: "Concat"
  bottom: "blob2"
  bottom: "blob9"
  top: "blob10"
  propagate_down: false
  propagate_down: false
  concat_param {
    concat_dim: 1
  }
}
layer {
  name: "FlowAugmentation1"
  type: "FlowAugmentation"
  bottom: "blob10"
  bottom: "blob6"
  bottom: "blob7"
  top: "blob11"
  propagate_down: false
  propagate_down: false
  propagate_down: false
  augmentation_param {
    crop_width: 768
    crop_height: 384
  }
}
layer {
  name: "Slice1"
  type: "Slice"
  bottom: "blob11"
  top: "disp_gt_aug"
  top: "blob13"
  propagate_down: false
  slice_param {
    slice_point: 1
    axis: 1
  }
}
layer {
  name: "ref_disp_scale"
  type: "DummyData"
  top: "ref_disp_scale"
  include {
    phase: TRAIN
  }
  dummy_data_param {
    data_filler {
      type: "constant"
      value: 0
    }
    num: 1
    channels: 4
    height: 96
    width: 192
  }
}
layer {
  name: "ref_disp_scale_half"
  type: "DummyData"
  top: "ref_disp_scale_half"
  include {
    phase: TRAIN
  }
  dummy_data_param {
    data_filler {
      type: "constant"
      value: 0
    }
    num: 1
    channels: 4
    height: 192
    width: 384
  }
}
layer {
  name: "disp_gt_aug_norm"
  type: "Eltwise"
  bottom: "disp_gt_aug"
  top: "disp_gt_aug_norm"
  eltwise_param {
    operation: SUM
    coeff: -0.1
  }
}
layer {
  name: "disp_gt_aug_norm_down"
  type: "Downsample"
  bottom: "disp_gt_aug_norm"
  bottom: "ref_disp_scale"
  top: "disp_gt_aug_norm_down"
  propagate_down: false
  propagate_down: false
}
layer {
  name: "disp_gt_aug_norm_down_half"
  type: "Downsample"
  bottom: "disp_gt_aug_norm"
  bottom: "ref_disp_scale_half"
  top: "disp_gt_aug_norm_down_half"
  propagate_down: false
  propagate_down: false
}
layer {
  name: "upsample_disparity_itr1_half"
  type: "Resample"
  bottom: "disp_gt_aug_norm_down_half"
  top: "upsampled_disparity_itr1_half"
  propagate_down: false
  resample_param {
    width: 768
    height: 384
    type: LINEAR
    antialias: true
  }
}
layer {
  name: "Silence1"
  type: "Silence"
  bottom: "blob0"
}
layer {
  name: "Silence2"
  type: "Silence"
  bottom: "blob1"
}
layer {
  name: "Silence3"
  type: "Silence"
  bottom: "blob2"
}
layer {
  name: "Silence4"
  type: "Silence"
  bottom: "blob9"
}
layer {
  name: "Silence5"
  type: "Silence"
  bottom: "blob13"
}
layer {
  name: "Silence6"
  type: "Silence"
  bottom: "img1_aug"
}
layer {
  name: "upsample_disparity_itr1"
  type: "Resample"
  bottom: "disp_gt_aug_norm_down"
  top: "upsampled_disparity_itr1"
  propagate_down: false
  resample_param {
    width: 768
    height: 384
    type: LINEAR
    antialias: true
  }
}
layer {
  name: "upsample_disparity2x_itr1"
  type: "Resample"
  bottom: "disp_gt_aug_norm_down"
  top: "upsampled_disparity2x_itr1"
  propagate_down: false
  resample_param {
    width: 384
    height: 192
    type: LINEAR
    antialias: true
  }
}
layer {
  name: "concat_input_itr1"
  type: "Concat"
  bottom: "img0_aug"
  bottom: "upsampled_disparity_itr1"
  top: "zoom_input_itr1"
  concat_param {
    axis: 1
  }
}
layer {
  name: "zoom_conv0_itr1"
  type: "Convolution"
  bottom: "zoom_input_itr1"
  top: "zoom_conv0_itr1"
  param {
    name: "zoom_conv0_w"
    lr_mult: 1
    decay_mult: 1
  }
  param {
    name: "zoom_conv0_b"
    lr_mult: 1
    decay_mult: 0
  }
  convolution_param {
    num_output: 32
    pad: 1
    kernel_size: 3
    stride: 1
    weight_filler {
      type: "msra"
    }
    bias_filler {
      type: "constant"
    }
    engine: CUDNN
  }
}
layer {
  name: "zoom_ReLU0_itr1"
  type: "ReLU"
  bottom: "zoom_conv0_itr1"
  top: "zoom_conv0_itr1"
  relu_param {
    negative_slope: 0.1
  }
}
layer {
  name: "zoom_conv1_itr1"
  type: "Convolution"
  bottom: "zoom_conv0_itr1"
  top: "zoom_conv1_itr1"
  param {
    name: "zoom_conv1_w"
    lr_mult: 1
    decay_mult: 1
  }
  param {
    name: "zoom_conv1_b"
    lr_mult: 1
    decay_mult: 0
  }
  convolution_param {
    num_output: 64
    pad: 1
    kernel_size: 3
    stride: 2
    weight_filler {
      type: "msra"
    }
    bias_filler {
      type: "constant"
    }
    engine: CUDNN
  }
}
layer {
  name: "zoom_ReLU1_itr1"
  type: "ReLU"
  bottom: "zoom_conv1_itr1"
  top: "zoom_conv1_itr1"
  relu_param {
    negative_slope: 0.1
  }
}
layer {
  name: "zoom_conv1b_itr1"
  type: "Convolution"
  bottom: "zoom_conv1_itr1"
  top: "zoom_conv1b_itr1"
  param {
    name: "zoom_conv1b_w"
    lr_mult: 1
    decay_mult: 1
  }
  param {
    name: "zoom_conv1b_b"
    lr_mult: 1
    decay_mult: 0
  }
  convolution_param {
    num_output: 64
    pad: 1
    kernel_size: 3
    stride: 1
    weight_filler {
      type: "msra"
    }
    bias_filler {
      type: "constant"
    }
    engine: CUDNN
  }
}
layer {
  name: "zoom_ReLU1b_itr1"
  type: "ReLU"
  bottom: "zoom_conv1b_itr1"
  top: "zoom_conv1b_itr1"
  relu_param {
    negative_slope: 0.1
  }
}
layer {
  name: "zoom_conv2_itr1"
  type: "Convolution"
  bottom: "zoom_conv1b_itr1"
  top: "zoom_conv2_itr1"
  param {
    name: "zoom_conv2_w"
    lr_mult: 1
    decay_mult: 1
  }
  param {
    name: "zoom_conv2_b"
    lr_mult: 1
    decay_mult: 0
  }
  convolution_param {
    num_output: 64
    pad: 1
    kernel_size: 3
    stride: 2
    weight_filler {
      type: "msra"
    }
    bias_filler {
      type: "constant"
    }
    engine: CUDNN
  }
}
layer {
  name: "zoom_ReLU2_itr1"
  type: "ReLU"
  bottom: "zoom_conv2_itr1"
  top: "zoom_conv2_itr1"
  relu_param {
    negative_slope: 0.1
  }
}
layer {
  name: "zoom_conv2b_itr1"
  type: "Convolution"
  bottom: "zoom_conv2_itr1"
  top: "zoom_conv2b_itr1"
  param {
    name: "zoom_conv2b_w"
    lr_mult: 1
    decay_mult: 1
  }
  param {
    name: "zoom_conv2b_b"
    lr_mult: 1
    decay_mult: 0
  }
  convolution_param {
    num_output: 64
    pad: 1
    kernel_size: 3
    stride: 1
    weight_filler {
      type: "msra"
    }
    bias_filler {
      type: "constant"
    }
    engine: CUDNN
  }
}
layer {
  name: "zoom_ReLU2b_itr1"
  type: "ReLU"
  bottom: "zoom_conv2b_itr1"
  top: "zoom_conv2b_itr1"
  relu_param {
    negative_slope: 0.1
  }
}
layer {
  name: "zoom_deconv2_itr1"
  type: "Deconvolution"
  bottom: "zoom_conv2b_itr1"
  top: "zoom_deconv2_itr1"
  param {
    name: "zoom_deconv2_w"
    lr_mult: 1
    decay_mult: 0
  }
  param {
    name: "zoom_deconv2_b"
    lr_mult: 0
    decay_mult: 0
  }
  convolution_param {
    num_output: 64
    pad: 1
    kernel_size: 4
    stride: 2
    weight_filler {
      type: "msra"
    }
    bias_filler {
      type: "constant"
    }
    engine: CUDNN
  }
}
layer {
  name: "zoom_ReLU0p_itr1"
  type: "ReLU"
  bottom: "zoom_deconv2_itr1"
  top: "zoom_deconv2_itr1"
  relu_param {
    negative_slope: 0.1
  }
}
layer {
  name: "zoom_Concat2_itr1"
  type: "Concat"
  bottom: "zoom_conv1b_itr1"
  bottom: "zoom_deconv2_itr1"
  bottom: "upsampled_disparity2x_itr1"
  top: "zoom_concat2_itr1"
}
layer {
  name: "zoom_fused1_itr1"
  type: "Convolution"
  bottom: "zoom_concat2_itr1"
  top: "zoom_fused1_itr1"
  param {
    name: "zoom_fused1_w"
    lr_mult: 1
    decay_mult: 0
  }
  param {
    name: "zoom_fused1_b"
    lr_mult: 1
    decay_mult: 0
  }
  convolution_param {
    num_output: 64
    pad: 1
    kernel_size: 3
    stride: 1
    weight_filler {
      type: "msra"
    }
    bias_filler {
      type: "constant"
    }
    engine: CUDNN
  }
}
layer {
  name: "zoom_deconv1_itr1"
  type: "Deconvolution"
  bottom: "zoom_fused1_itr1"
  top: "zoom_deconv1_itr1"
  param {
    lr_mult: 1
    decay_mult: 0
  }
  param {
    lr_mult: 0
    decay_mult: 0
  }
  convolution_param {
    num_output: 32
    pad: 1
    kernel_size: 4
    stride: 2
    weight_filler {
      type: "msra"
    }
    bias_filler {
      type: "constant"
    }
    engine: CUDNN
  }
}
layer {
  name: "zoom_ReLU1p_itr1"
  type: "ReLU"
  bottom: "zoom_deconv1_itr1"
  top: "zoom_deconv1_itr1"
  relu_param {
    negative_slope: 0.1
  }
}
layer {
  name: "zoom_Concat1_itr1"
  type: "Concat"
  bottom: "zoom_conv0_itr1"
  bottom: "zoom_deconv1_itr1"
  bottom: "upsampled_disparity_itr1_half"
  top: "zoom_concat1_itr1"
}
layer {
  name: "zoom_fused0_itr1"
  type: "Convolution"
  bottom: "zoom_concat1_itr1"
  top: "zoom_fused0_itr1"
  param {
    name: "zoom_fused0_w"
    lr_mult: 1
    decay_mult: 0
  }
  param {
    name: "zoom_fused0_b"
    lr_mult: 1
    decay_mult: 0
  }
  convolution_param {
    num_output: 32
    pad: 1
    kernel_size: 3
    stride: 1
    weight_filler {
      type: "msra"
    }
    bias_filler {
      type: "constant"
    }
    engine: CUDNN
  }
}
layer {
  name: "zoom_Convolution0_itr1"
  type: "Convolution"
  bottom: "zoom_fused0_itr1"
  top: "zoom_predict0_itr1"
  param {
    name: "zoom_predict0_w"
    lr_mult: 1
    decay_mult: 0
  }
  param {
    name: "zoom_predict0_b"
    lr_mult: 1
    decay_mult: 0
  }
  convolution_param {
    num_output: 1
    pad: 1
    kernel_size: 3
    stride: 1
    weight_filler {
      type: "msra"
    }
    bias_filler {
      type: "constant"
    }
    engine: CUDNN
  }
}
layer {
  name: "zoom_ReLU_predict_itr1"
  type: "ReLU"
  bottom: "zoom_predict0_itr1"
  top: "zoom_predict0n_itr1"
}
layer {
  name: "zoom_disp_loss0"
  type: "L1Loss"
  bottom: "zoom_predict0n_itr1"
  bottom: "disp_gt_aug_norm"
  top: "zoom_disp_loss0"
  loss_weight: 1
  l1_loss_param {
    l2_per_location: false
    normalize_by_num_entries: true
  }
}
layer {
  name: "down_up_loss"
  type: "L1Loss"
  bottom: "upsampled_disparity_itr1"
  bottom: "disp_gt_aug_norm"
  top: "down_up_loss"
  loss_weight: 0
  propagate_down: false
  propagate_down: false
  l1_loss_param {
    l2_per_location: false
    normalize_by_num_entries: true
  }
}
layer {
  name: "down_up_half_loss"
  type: "L1Loss"
  bottom: "upsampled_disparity_itr1_half"
  bottom: "disp_gt_aug_norm"
  top: "down_up_half_loss"
  loss_weight: 0
  propagate_down: false
  propagate_down: false
  l1_loss_param {
    l2_per_location: false
    normalize_by_num_entries: true
  }
}
layer {
  name: "to_real_disp_loss"
  type: "Eltwise"
  bottom: "zoom_disp_loss0"
  top: "zoom_disp_loss0_real"
  propagate_down: false
  eltwise_param {
    operation: SUM
    coeff: 1
  }
}
layer {
  name: "to_real_downup_loss"
  type: "Eltwise"
  bottom: "down_up_loss"
  top: "down_up_loss_real"
  propagate_down: false
  eltwise_param {
    operation: SUM
    coeff: 1
  }
}
layer {
  name: "to_real_downup_loss"
  type: "Eltwise"
  bottom: "down_up_half_loss"
  top: "down_up_half_loss_real"
  propagate_down: false
  eltwise_param {
    operation: SUM
    coeff: 1
  }
}
I0814 08:07:36.355468 28599 layer_factory.hpp:77] Creating layer CustomData1
I0814 08:07:36.355484 28599 net.cpp:91] Creating Layer CustomData1
I0814 08:07:36.355490 28599 net.cpp:404] CustomData1 -> blob0
I0814 08:07:36.355509 28599 net.cpp:404] CustomData1 -> blob1
I0814 08:07:36.355518 28599 net.cpp:404] CustomData1 -> blob2
…
15305 7159 1546 9917 3667 10730 2846 9280 13316 17525 20291 19511 20209 13657 1356 5486 12064 1025 5588 3913 2175 19323 786 12702 3715 8849 7654 16254 18868 6207 4880 11097 1560 18228 12135 10996 6615 1583 1611 9760 6531 1958 5522 115I0814 08:07:36.503315 28599 custom_data_layer.cpp:541] output 0 data size: 4,3,540,960
I0814 08:07:36.503353 28599 custom_data_layer.cpp:541] output 1 data size: 4,3,540,960
I0814 08:07:36.503374 28599 custom_data_layer.cpp:541] output 2 data size: 4,1,540,960
I0814 08:07:36.529762 28599 net.cpp:144] Setting up CustomData1
I0814 08:07:36.529814 28599 net.cpp:151] Top shape: 4 3 540 960 (6220800)
I0814 08:07:36.529819 28599 net.cpp:151] Top shape: 4 3 540 960 (6220800)
I0814 08:07:36.529822 28599 net.cpp:151] Top shape: 4 1 540 960 (2073600)
I0814 08:07:36.529824 28599 net.cpp:159] Memory required for data: 58060800
I0814 08:07:36.529831 28599 layer_factory.hpp:77] Creating layer blob0_CustomData1_0_split
I0814 08:07:36.529847 28599 net.cpp:91] Creating Layer blob0_CustomData1_0_split
I0814 08:07:36.529852 28599 net.cpp:432] blob0_CustomData1_0_split <- blob0
I0814 08:07:36.529861 28599 net.cpp:404] blob0_CustomData1_0_split -> blob0_CustomData1_0_split_0
I0814 08:07:36.529871 28599 net.cpp:404] blob0_CustomData1_0_split -> blob0_CustomData1_0_split_1
I0814 08:07:36.529932 28599 net.cpp:144] Setting up blob0_CustomData1_0_split
I0814 08:07:36.529937 28599 net.cpp:151] Top shape: 4 3 540 960 (6220800)
I0814 08:07:36.529940 28599 net.cpp:151] Top shape: 4 3 540 960 (6220800)
I0814 08:07:36.529942 28599 net.cpp:159] Memory required for data: 107827200
I0814 08:07:36.529945 28599 layer_factory.hpp:77] Creating layer blob1_CustomData1_1_split
I0814 08:07:36.529950 28599 net.cpp:91] Creating Layer blob1_CustomData1_1_split
I0814 08:07:36.529953 28599 net.cpp:432] blob1_CustomData1_1_split <- blob1
I0814 08:07:36.529956 28599 net.cpp:404] blob1_CustomData1_1_split -> blob1_CustomData1_1_split_0
I0814 08:07:36.529961 28599 net.cpp:404] blob1_CustomData1_1_split -> blob1_CustomData1_1_split_1
I0814 08:07:36.529983 28599 net.cpp:144] Setting up blob1_CustomData1_1_split
I0814 08:07:36.529986 28599 net.cpp:151] Top shape: 4 3 540 960 (6220800)
I0814 08:07:36.529989 28599 net.cpp:151] Top shape: 4 3 540 960 (6220800)
I0814 08:07:36.529991 28599 net.cpp:159] Memory required for data: 157593600
I0814 08:07:36.529994 28599 layer_factory.hpp:77] Creating layer blob2_CustomData1_2_split
I0814 08:07:36.529997 28599 net.cpp:91] Creating Layer blob2_CustomData1_2_split
I0814 08:07:36.530000 28599 net.cpp:432] blob2_CustomData1_2_split <- blob2
I0814 08:07:36.530004 28599 net.cpp:404] blob2_CustomData1_2_split -> blob2_CustomData1_2_split_0
I0814 08:07:36.530007 28599 net.cpp:404] blob2_CustomData1_2_split -> blob2_CustomData1_2_split_1
I0814 08:07:36.530030 28599 net.cpp:144] Setting up blob2_CustomData1_2_split
I0814 08:07:36.530051 28599 net.cpp:151] Top shape: 4 1 540 960 (2073600)
I0814 08:07:36.530055 28599 net.cpp:151] Top shape: 4 1 540 960 (2073600)
I0814 08:07:36.530056 28599 net.cpp:159] Memory required for data: 174182400
I0814 08:07:36.530059 28599 layer_factory.hpp:77] Creating layer Eltwise1
I0814 08:07:36.530069 28599 net.cpp:91] Creating Layer Eltwise1
I0814 08:07:36.530072 28599 net.cpp:432] Eltwise1 <- blob0_CustomData1_0_split_0
I0814 08:07:36.530077 28599 net.cpp:404] Eltwise1 -> blob3
I0814 08:07:36.530099 28599 net.cpp:144] Setting up Eltwise1
I0814 08:07:36.530103 28599 net.cpp:151] Top shape: 4 3 540 960 (6220800)
I0814 08:07:36.530105 28599 net.cpp:159] Memory required for data: 199065600
I0814 08:07:36.530107 28599 layer_factory.hpp:77] Creating layer blob3_Eltwise1_0_split
I0814 08:07:36.530112 28599 net.cpp:91] Creating Layer blob3_Eltwise1_0_split
I0814 08:07:36.530113 28599 net.cpp:432] blob3_Eltwise1_0_split <- blob3
I0814 08:07:36.530118 28599 net.cpp:404] blob3_Eltwise1_0_split -> blob3_Eltwise1_0_split_0
I0814 08:07:36.530122 28599 net.cpp:404] blob3_Eltwise1_0_split -> blob3_Eltwise1_0_split_1
I0814 08:07:36.530141 28599 net.cpp:144] Setting up blob3_Eltwise1_0_split
I0814 08:07:36.530144 28599 net.cpp:151] Top shape: 4 3 540 960 (6220800)
I0814 08:07:36.530148 28599 net.cpp:151] Top shape: 4 3 540 960 (6220800)
I0814 08:07:36.530149 28599 net.cpp:159] Memory required for data: 248832000
I0814 08:07:36.530153 28599 layer_factory.hpp:77] Creating layer Eltwise2
I0814 08:07:36.530158 28599 net.cpp:91] Creating Layer Eltwise2
I0814 08:07:36.530160 28599 net.cpp:432] Eltwise2 <- blob1_CustomData1_1_split_0
I0814 08:07:36.530164 28599 net.cpp:404] Eltwise2 -> blob4
I0814 08:07:36.530175 28599 net.cpp:144] Setting up Eltwise2
I0814 08:07:36.530179 28599 net.cpp:151] Top shape: 4 3 540 960 (6220800)
I0814 08:07:36.530181 28599 net.cpp:159] Memory required for data: 273715200
I0814 08:07:36.530184 28599 layer_factory.hpp:77] Creating layer img0s_aug
I0814 08:07:36.530199 28599 net.cpp:91] Creating Layer img0s_aug
I0814 08:07:36.530201 28599 net.cpp:432] img0s_aug <- blob3_Eltwise1_0_split_0
I0814 08:07:36.530207 28599 net.cpp:404] img0s_aug -> img0_aug
I0814 08:07:36.530217 28599 net.cpp:404] img0s_aug -> blob6
W0814 08:07:36.530225 28599 data_augmentation_layer.cpp:40] DataAugmentationLayer only runs Reshape on setup
I0814 08:07:36.530232 28599 data_augmentation_layer.cpp:45] Recompute mean
W0814 08:07:36.530349 28599 data_augmentation_layer.cpp:77] Reshape of Augmentation layer should only be called once? Check this
I0814 08:07:36.530387 28599 data_augmentation_layer.cpp:123] Emitting 42 augmentation params
I0814 08:07:36.530977 28599 net.cpp:144] Setting up img0s_aug
I0814 08:07:36.530988 28599 net.cpp:151] Top shape: 4 3 384 768 (3538944)
I0814 08:07:36.530992 28599 net.cpp:151] Top shape: 4 42 1 1 (168)
I0814 08:07:36.530994 28599 net.cpp:159] Memory required for data: 287871648
I0814 08:07:36.531006 28599 layer_factory.hpp:77] Creating layer img0_aug_img0s_aug_0_split
I0814 08:07:36.531013 28599 net.cpp:91] Creating Layer img0_aug_img0s_aug_0_split
I0814 08:07:36.531016 28599 net.cpp:432] img0_aug_img0s_aug_0_split <- img0_aug
I0814 08:07:36.531020 28599 net.cpp:404] img0_aug_img0s_aug_0_split -> img0_aug_img0s_aug_0_split_0
I0814 08:07:36.531026 28599 net.cpp:404] img0_aug_img0s_aug_0_split -> img0_aug_img0s_aug_0_split_1
I0814 08:07:36.531049 28599 net.cpp:144] Setting up img0_aug_img0s_aug_0_split
I0814 08:07:36.531052 28599 net.cpp:151] Top shape: 4 3 384 768 (3538944)
I0814 08:07:36.531056 28599 net.cpp:151] Top shape: 4 3 384 768 (3538944)
I0814 08:07:36.531059 28599 net.cpp:159] Memory required for data: 316183200
I0814 08:07:36.531061 28599 layer_factory.hpp:77] Creating layer blob6_img0s_aug_1_split
I0814 08:07:36.531065 28599 net.cpp:91] Creating Layer blob6_img0s_aug_1_split
I0814 08:07:36.531067 28599 net.cpp:432] blob6_img0s_aug_1_split <- blob6
I0814 08:07:36.531072 28599 net.cpp:404] blob6_img0s_aug_1_split -> blob6_img0s_aug_1_split_0
I0814 08:07:36.531076 28599 net.cpp:404] blob6_img0s_aug_1_split -> blob6_img0s_aug_1_split_1
I0814 08:07:36.531105 28599 net.cpp:144] Setting up blob6_img0s_aug_1_split
I0814 08:07:36.531117 28599 net.cpp:151] Top shape: 4 42 1 1 (168)
I0814 08:07:36.531121 28599 net.cpp:151] Top shape: 4 42 1 1 (168)
I0814 08:07:36.531122 28599 net.cpp:159] Memory required for data: 316184544
I0814 08:07:36.531126 28599 layer_factory.hpp:77] Creating layer aug_params1
I0814 08:07:36.531136 28599 net.cpp:91] Creating Layer aug_params1
I0814 08:07:36.531138 28599 net.cpp:432] aug_params1 <- blob6_img0s_aug_1_split_0
I0814 08:07:36.531141 28599 net.cpp:432] aug_params1 <- blob3_Eltwise1_0_split_1
I0814 08:07:36.531144 28599 net.cpp:432] aug_params1 <- img0_aug_img0s_aug_0_split_0
I0814 08:07:36.531153 28599 net.cpp:404] aug_params1 -> blob7
W0814 08:07:36.531160 28599 generate_augmentation_parameters_layer.cpp:36] GenerateAugmentationParametersLayer only runs Reshape only on setup
I0814 08:07:36.531167 28599 generate_augmentation_parameters_layer.cpp:68] mode: add
I0814 08:07:36.531179 28599 net.cpp:144] Setting up aug_params1
I0814 08:07:36.531183 28599 net.cpp:151] Top shape: 4 42 1 1 (168)
I0814 08:07:36.531185 28599 net.cpp:159] Memory required for data: 316185216
I0814 08:07:36.531188 28599 layer_factory.hpp:77] Creating layer blob7_aug_params1_0_split
I0814 08:07:36.531191 28599 net.cpp:91] Creating Layer blob7_aug_params1_0_split
I0814 08:07:36.531194 28599 net.cpp:432] blob7_aug_params1_0_split <- blob7
I0814 08:07:36.531198 28599 net.cpp:404] blob7_aug_params1_0_split -> blob7_aug_params1_0_split_0
I0814 08:07:36.531203 28599 net.cpp:404] blob7_aug_params1_0_split -> blob7_aug_params1_0_split_1
I0814 08:07:36.531222 28599 net.cpp:144] Setting up blob7_aug_params1_0_split
I0814 08:07:36.531226 28599 net.cpp:151] Top shape: 4 42 1 1 (168)
I0814 08:07:36.531229 28599 net.cpp:151] Top shape: 4 42 1 1 (168)
I0814 08:07:36.531231 28599 net.cpp:159] Memory required for data: 316186560
I0814 08:07:36.531234 28599 layer_factory.hpp:77] Creating layer img1s_aug
I0814 08:07:36.531239 28599 net.cpp:91] Creating Layer img1s_aug
I0814 08:07:36.531241 28599 net.cpp:432] img1s_aug <- blob4
I0814 08:07:36.531244 28599 net.cpp:432] img1s_aug <- blob7_aug_params1_0_split_0
I0814 08:07:36.531249 28599 net.cpp:404] img1s_aug -> img1_aug
W0814 08:07:36.531253 28599 data_augmentation_layer.cpp:40] DataAugmentationLayer only runs Reshape on setup
I0814 08:07:36.531257 28599 data_augmentation_layer.cpp:45] Recompute mean
W0814 08:07:36.531298 28599 data_augmentation_layer.cpp:77] Reshape of Augmentation layer should only be called once? Check this
I0814 08:07:36.531316 28599 data_augmentation_layer.cpp:116] Receiving 42 augmentation params
I0814 08:07:36.531805 28599 net.cpp:144] Setting up img1s_aug
I0814 08:07:36.531812 28599 net.cpp:151] Top shape: 4 3 384 768 (3538944)
I0814 08:07:36.531816 28599 net.cpp:159] Memory required for data: 330342336
I0814 08:07:36.531822 28599 layer_factory.hpp:77] Creating layer DummyData1
I0814 08:07:36.531831 28599 net.cpp:91] Creating Layer DummyData1
I0814 08:07:36.531836 28599 net.cpp:404] DummyData1 -> blob9
I0814 08:07:36.535568 28599 net.cpp:144] Setting up DummyData1
I0814 08:07:36.535599 28599 net.cpp:151] Top shape: 4 1 540 960 (2073600)
I0814 08:07:36.535603 28599 net.cpp:159] Memory required for data: 338636736
I0814 08:07:36.535607 28599 layer_factory.hpp:77] Creating layer blob9_DummyData1_0_split
I0814 08:07:36.535615 28599 net.cpp:91] Creating Layer blob9_DummyData1_0_split
I0814 08:07:36.535619 28599 net.cpp:432] blob9_DummyData1_0_split <- blob9
I0814 08:07:36.535625 28599 net.cpp:404] blob9_DummyData1_0_split -> blob9_DummyData1_0_split_0
I0814 08:07:36.535632 28599 net.cpp:404] blob9_DummyData1_0_split -> blob9_DummyData1_0_split_1
I0814 08:07:36.535686 28599 net.cpp:144] Setting up blob9_DummyData1_0_split
I0814 08:07:36.535689 28599 net.cpp:151] Top shape: 4 1 540 960 (2073600)
I0814 08:07:36.535692 28599 net.cpp:151] Top shape: 4 1 540 960 (2073600)
I0814 08:07:36.535694 28599 net.cpp:159] Memory required for data: 355225536
I0814 08:07:36.535713 28599 layer_factory.hpp:77] Creating layer Concat1
I0814 08:07:36.535724 28599 net.cpp:91] Creating Layer Concat1
I0814 08:07:36.535727 28599 net.cpp:432] Concat1 <- blob2_CustomData1_2_split_0
I0814 08:07:36.535732 28599 net.cpp:432] Concat1 <- blob9_DummyData1_0_split_0
I0814 08:07:36.535737 28599 net.cpp:404] Concat1 -> blob10
I0814 08:07:36.535753 28599 net.cpp:144] Setting up Concat1
I0814 08:07:36.535756 28599 net.cpp:151] Top shape: 4 2 540 960 (4147200)
I0814 08:07:36.535759 28599 net.cpp:159] Memory required for data: 371814336
I0814 08:07:36.535761 28599 layer_factory.hpp:77] Creating layer FlowAugmentation1
I0814 08:07:36.535773 28599 net.cpp:91] Creating Layer FlowAugmentation1
I0814 08:07:36.535775 28599 net.cpp:432] FlowAugmentation1 <- blob10
I0814 08:07:36.535778 28599 net.cpp:432] FlowAugmentation1 <- blob6_img0s_aug_1_split_1
I0814 08:07:36.535781 28599 net.cpp:432] FlowAugmentation1 <- blob7_aug_params1_0_split_1
I0814 08:07:36.535786 28599 net.cpp:404] FlowAugmentation1 -> blob11
W0814 08:07:36.535791 28599 flow_augmentation_layer.cpp:36] FlowAugmentationLayer only runs Reshape only on setup
I0814 08:07:36.535825 28599 net.cpp:144] Setting up FlowAugmentation1
I0814 08:07:36.535830 28599 net.cpp:151] Top shape: 4 2 384 768 (2359296)
I0814 08:07:36.535833 28599 net.cpp:159] Memory required for data: 381251520
I0814 08:07:36.535835 28599 layer_factory.hpp:77] Creating layer Slice1
I0814 08:07:36.535845 28599 net.cpp:91] Creating Layer Slice1
I0814 08:07:36.535846 28599 net.cpp:432] Slice1 <- blob11
I0814 08:07:36.535851 28599 net.cpp:404] Slice1 -> disp_gt_aug
I0814 08:07:36.535857 28599 net.cpp:404] Slice1 -> blob13
I0814 08:07:36.535879 28599 net.cpp:144] Setting up Slice1
I0814 08:07:36.535883 28599 net.cpp:151] Top shape: 4 1 384 768 (1179648)
I0814 08:07:36.535886 28599 net.cpp:151] Top shape: 4 1 384 768 (1179648)
I0814 08:07:36.535888 28599 net.cpp:159] Memory required for data: 390688704
I0814 08:07:36.535890 28599 layer_factory.hpp:77] Creating layer ref_disp_scale
I0814 08:07:36.535897 28599 net.cpp:91] Creating Layer ref_disp_scale
I0814 08:07:36.535900 28599 net.cpp:404] ref_disp_scale -> ref_disp_scale
I0814 08:07:36.536366 28599 net.cpp:144] Setting up ref_disp_scale
I0814 08:07:36.536375 28599 net.cpp:151] Top shape: 1 4 96 192 (73728)
I0814 08:07:36.536377 28599 net.cpp:159] Memory required for data: 390983616
I0814 08:07:36.536381 28599 layer_factory.hpp:77] Creating layer ref_disp_scale_half
I0814 08:07:36.536386 28599 net.cpp:91] Creating Layer ref_disp_scale_half
I0814 08:07:36.536391 28599 net.cpp:404] ref_disp_scale_half -> ref_disp_scale_half
I0814 08:07:36.536851 28599 net.cpp:144] Setting up ref_disp_scale_half
I0814 08:07:36.536859 28599 net.cpp:151] Top shape: 1 4 192 384 (294912)
I0814 08:07:36.536861 28599 net.cpp:159] Memory required for data: 392163264
I0814 08:07:36.536864 28599 layer_factory.hpp:77] Creating layer disp_gt_aug_norm
I0814 08:07:36.536870 28599 net.cpp:91] Creating Layer disp_gt_aug_norm
I0814 08:07:36.536873 28599 net.cpp:432] disp_gt_aug_norm <- disp_gt_aug
I0814 08:07:36.536878 28599 net.cpp:404] disp_gt_aug_norm -> disp_gt_aug_norm
I0814 08:07:36.536900 28599 net.cpp:144] Setting up disp_gt_aug_norm
I0814 08:07:36.536905 28599 net.cpp:151] Top shape: 4 1 384 768 (1179648)
I0814 08:07:36.536906 28599 net.cpp:159] Memory required for data: 396881856
I0814 08:07:36.536909 28599 layer_factory.hpp:77] Creating layer disp_gt_aug_norm_disp_gt_aug_norm_0_split
I0814 08:07:36.536913 28599 net.cpp:91] Creating Layer disp_gt_aug_norm_disp_gt_aug_norm_0_split
I0814 08:07:36.536916 28599 net.cpp:432] disp_gt_aug_norm_disp_gt_aug_norm_0_split <- disp_gt_aug_norm
I0814 08:07:36.536921 28599 net.cpp:404] disp_gt_aug_norm_disp_gt_aug_norm_0_split -> disp_gt_aug_norm_disp_gt_aug_norm_0_split_0
I0814 08:07:36.536926 28599 net.cpp:404] disp_gt_aug_norm_disp_gt_aug_norm_0_split -> disp_gt_aug_norm_disp_gt_aug_norm_0_split_1
I0814 08:07:36.536931 28599 net.cpp:404] disp_gt_aug_norm_disp_gt_aug_norm_0_split -> disp_gt_aug_norm_disp_gt_aug_norm_0_split_2
I0814 08:07:36.536942 28599 net.cpp:404] disp_gt_aug_norm_disp_gt_aug_norm_0_split -> disp_gt_aug_norm_disp_gt_aug_norm_0_split_3
I0814 08:07:36.536947 28599 net.cpp:404] disp_gt_aug_norm_disp_gt_aug_norm_0_split -> disp_gt_aug_norm_disp_gt_aug_norm_0_split_4
I0814 08:07:36.536988 28599 net.cpp:144] Setting up disp_gt_aug_norm_disp_gt_aug_norm_0_split
I0814 08:07:36.536991 28599 net.cpp:151] Top shape: 4 1 384 768 (1179648)
I0814 08:07:36.536994 28599 net.cpp:151] Top shape: 4 1 384 768 (1179648)
I0814 08:07:36.536998 28599 net.cpp:151] Top shape: 4 1 384 768 (1179648)
I0814 08:07:36.537000 28599 net.cpp:151] Top shape: 4 1 384 768 (1179648)
I0814 08:07:36.537003 28599 net.cpp:151] Top shape: 4 1 384 768 (1179648)
I0814 08:07:36.537005 28599 net.cpp:159] Memory required for data: 420474816
I0814 08:07:36.537008 28599 layer_factory.hpp:77] Creating layer disp_gt_aug_norm_down
I0814 08:07:36.537011 28599 net.cpp:91] Creating Layer disp_gt_aug_norm_down
I0814 08:07:36.537014 28599 net.cpp:432] disp_gt_aug_norm_down <- disp_gt_aug_norm_disp_gt_aug_norm_0_split_0
I0814 08:07:36.537019 28599 net.cpp:432] disp_gt_aug_norm_down <- ref_disp_scale
I0814 08:07:36.537022 28599 net.cpp:404] disp_gt_aug_norm_down -> disp_gt_aug_norm_down
W0814 08:07:36.537027 28599 downsample_layer.cpp:25] DownsampleLayer only runs Reshape on setup
I0814 08:07:36.537041 28599 net.cpp:144] Setting up disp_gt_aug_norm_down
I0814 08:07:36.537045 28599 net.cpp:151] Top shape: 4 1 96 192 (73728)
I0814 08:07:36.537048 28599 net.cpp:159] Memory required for data: 420769728
I0814 08:07:36.537050 28599 layer_factory.hpp:77] Creating layer disp_gt_aug_norm_down_disp_gt_aug_norm_down_0_split
I0814 08:07:36.537055 28599 net.cpp:91] Creating Layer disp_gt_aug_norm_down_disp_gt_aug_norm_down_0_split
I0814 08:07:36.537056 28599 net.cpp:432] disp_gt_aug_norm_down_disp_gt_aug_norm_down_0_split <- disp_gt_aug_norm_down
I0814 08:07:36.537062 28599 net.cpp:404] disp_gt_aug_norm_down_disp_gt_aug_norm_down_0_split -> disp_gt_aug_norm_down_disp_gt_aug_norm_down_0_split_0
I0814 08:07:36.537066 28599 net.cpp:404] disp_gt_aug_norm_down_disp_gt_aug_norm_down_0_split -> disp_gt_aug_norm_down_disp_gt_aug_norm_down_0_split_1
I0814 08:07:36.537086 28599 net.cpp:144] Setting up disp_gt_aug_norm_down_disp_gt_aug_norm_down_0_split
I0814 08:07:36.537088 28599 net.cpp:151] Top shape: 4 1 96 192 (73728)
I0814 08:07:36.537091 28599 net.cpp:151] Top shape: 4 1 96 192 (73728)
I0814 08:07:36.537093 28599 net.cpp:159] Memory required for data: 421359552
I0814 08:07:36.537096 28599 layer_factory.hpp:77] Creating layer disp_gt_aug_norm_down_half
I0814 08:07:36.537101 28599 net.cpp:91] Creating Layer disp_gt_aug_norm_down_half
I0814 08:07:36.537102 28599 net.cpp:432] disp_gt_aug_norm_down_half <- disp_gt_aug_norm_disp_gt_aug_norm_0_split_1
I0814 08:07:36.537106 28599 net.cpp:432] disp_gt_aug_norm_down_half <- ref_disp_scale_half
I0814 08:07:36.537109 28599 net.cpp:404] disp_gt_aug_norm_down_half -> disp_gt_aug_norm_down_half
W0814 08:07:36.537113 28599 downsample_layer.cpp:25] DownsampleLayer only runs Reshape on setup
I0814 08:07:36.537127 28599 net.cpp:144] Setting up disp_gt_aug_norm_down_half
I0814 08:07:36.537129 28599 net.cpp:151] Top shape: 4 1 192 384 (294912)
I0814 08:07:36.537132 28599 net.cpp:159] Memory required for data: 422539200
I0814 08:07:36.537134 28599 layer_factory.hpp:77] Creating layer upsample_disparity_itr1_half
I0814 08:07:36.537138 28599 net.cpp:91] Creating Layer upsample_disparity_itr1_half
I0814 08:07:36.537142 28599 net.cpp:432] upsample_disparity_itr1_half <- disp_gt_aug_norm_down_half
I0814 08:07:36.537147 28599 net.cpp:404] upsample_disparity_itr1_half -> upsampled_disparity_itr1_half
W0814 08:07:36.537153 28599 resample_layer.cpp:28] ResampleLayer only runs Reshape on setup
I0814 08:07:36.537165 28599 net.cpp:144] Setting up upsample_disparity_itr1_half
I0814 08:07:36.537168 28599 net.cpp:151] Top shape: 4 1 384 768 (1179648)
I0814 08:07:36.537170 28599 net.cpp:159] Memory required for data: 427257792
I0814 08:07:36.537173 28599 layer_factory.hpp:77] Creating layer upsampled_disparity_itr1_half_upsample_disparity_itr1_half_0_split
I0814 08:07:36.537181 28599 net.cpp:91] Creating Layer upsampled_disparity_itr1_half_upsample_disparity_itr1_half_0_split
I0814 08:07:36.537184 28599 net.cpp:432] upsampled_disparity_itr1_half_upsample_disparity_itr1_half_0_split <- upsampled_disparity_itr1_half
I0814 08:07:36.537189 28599 net.cpp:404] upsampled_disparity_itr1_half_upsample_disparity_itr1_half_0_split -> upsampled_disparity_itr1_half_upsample_disparity_itr1_half_0_split_0
I0814 08:07:36.537192 28599 net.cpp:404] upsampled_disparity_itr1_half_upsample_disparity_itr1_half_0_split -> upsampled_disparity_itr1_half_upsample_disparity_itr1_half_0_split_1
I0814 08:07:36.537211 28599 net.cpp:144] Setting up upsampled_disparity_itr1_half_upsample_disparity_itr1_half_0_split
I0814 08:07:36.537215 28599 net.cpp:151] Top shape: 4 1 384 768 (1179648)
I0814 08:07:36.537219 28599 net.cpp:151] Top shape: 4 1 384 768 (1179648)
I0814 08:07:36.537220 28599 net.cpp:159] Memory required for data: 436694976
I0814 08:07:36.537222 28599 layer_factory.hpp:77] Creating layer Silence1
I0814 08:07:36.537230 28599 net.cpp:91] Creating Layer Silence1
I0814 08:07:36.537233 28599 net.cpp:432] Silence1 <- blob0_CustomData1_0_split_1
I0814 08:07:36.537236 28599 net.cpp:144] Setting up Silence1
I0814 08:07:36.537238 28599 net.cpp:159] Memory required for data: 436694976
…
I0814 08:07:36.541127 28599 net.cpp:159] Memory required for data: 436694976
I0814 08:07:36.541129 28599 layer_factory.hpp:77] Creating layer upsample_disparity_itr1
I0814 08:07:36.541134 28599 net.cpp:91] Creating Layer upsample_disparity_itr1
I0814 08:07:36.541137 28599 net.cpp:432] upsample_disparity_itr1 <- disp_gt_aug_norm_down_disp_gt_aug_norm_down_0_split_0
I0814 08:07:36.541142 28599 net.cpp:404] upsample_disparity_itr1 -> upsampled_disparity_itr1
W0814 08:07:36.541148 28599 resample_layer.cpp:28] ResampleLayer only runs Reshape on setup
I0814 08:07:36.541177 28599 net.cpp:144] Setting up upsample_disparity_itr1
I0814 08:07:36.541182 28599 net.cpp:151] Top shape: 4 1 384 768 (1179648)
I0814 08:07:36.541184 28599 net.cpp:159] Memory required for data: 441413568
I0814 08:07:36.541188 28599 layer_factory.hpp:77] Creating layer upsampled_disparity_itr1_upsample_disparity_itr1_0_split
I0814 08:07:36.541193 28599 net.cpp:91] Creating Layer upsampled_disparity_itr1_upsample_disparity_itr1_0_split
I0814 08:07:36.541195 28599 net.cpp:432] upsampled_disparity_itr1_upsample_disparity_itr1_0_split <- upsampled_disparity_itr1
I0814 08:07:36.541206 28599 net.cpp:404] upsampled_disparity_itr1_upsample_disparity_itr1_0_split -> upsampled_disparity_itr1_upsample_disparity_itr1_0_split_0
I0814 08:07:36.541213 28599 net.cpp:404] upsampled_disparity_itr1_upsample_disparity_itr1_0_split -> upsampled_disparity_itr1_upsample_disparity_itr1_0_split_1
I0814 08:07:36.541240 28599 net.cpp:144] Setting up upsampled_disparity_itr1_upsample_disparity_itr1_0_split
I0814 08:07:36.541245 28599 net.cpp:151] Top shape: 4 1 384 768 (1179648)
I0814 08:07:36.541249 28599 net.cpp:151] Top shape: 4 1 384 768 (1179648)
I0814 08:07:36.541251 28599 net.cpp:159] Memory required for data: 450850752
I0814 08:07:36.541254 28599 layer_factory.hpp:77] Creating layer upsample_disparity2x_itr1
I0814 08:07:36.541259 28599 net.cpp:91] Creating Layer upsample_disparity2x_itr1
I0814 08:07:36.541261 28599 net.cpp:432] upsample_disparity2x_itr1 <- disp_gt_aug_norm_down_disp_gt_aug_norm_down_0_split_1
I0814 08:07:36.541265 28599 net.cpp:404] upsample_disparity2x_itr1 -> upsampled_disparity2x_itr1
W0814 08:07:36.541270 28599 resample_layer.cpp:28] ResampleLayer only runs Reshape on setup
I0814 08:07:36.541287 28599 net.cpp:144] Setting up upsample_disparity2x_itr1
I0814 08:07:36.541292 28599 net.cpp:151] Top shape: 4 1 192 384 (294912)
I0814 08:07:36.541294 28599 net.cpp:159] Memory required for data: 452030400
I0814 08:07:36.541297 28599 layer_factory.hpp:77] Creating layer concat_input_itr1
I0814 08:07:36.541301 28599 net.cpp:91] Creating Layer concat_input_itr1
I0814 08:07:36.541304 28599 net.cpp:432] concat_input_itr1 <- img0_aug_img0s_aug_0_split_1
I0814 08:07:36.541308 28599 net.cpp:432] concat_input_itr1 <- upsampled_disparity_itr1_upsample_disparity_itr1_0_split_0
I0814 08:07:36.541312 28599 net.cpp:404] concat_input_itr1 -> zoom_input_itr1
I0814 08:07:36.541327 28599 net.cpp:144] Setting up concat_input_itr1
I0814 08:07:36.541332 28599 net.cpp:151] Top shape: 4 4 384 768 (4718592)
I0814 08:07:36.541334 28599 net.cpp:159] Memory required for data: 470904768
I0814 08:07:36.541337 28599 layer_factory.hpp:77] Creating layer zoom_conv0_itr1
I0814 08:07:36.541352 28599 net.cpp:91] Creating Layer zoom_conv0_itr1
I0814 08:07:36.541355 28599 net.cpp:432] zoom_conv0_itr1 <- zoom_input_itr1
I0814 08:07:36.541362 28599 net.cpp:404] zoom_conv0_itr1 -> zoom_conv0_itr1
I0814 08:07:37.348233 28599 net.cpp:144] Setting up zoom_conv0_itr1
I0814 08:07:37.348260 28599 net.cpp:151] Top shape: 4 32 384 768 (37748736)
I0814 08:07:37.348263 28599 net.cpp:159] Memory required for data: 621899712
I0814 08:07:37.348273 28599 layer_factory.hpp:77] Creating layer zoom_ReLU0_itr1
I0814 08:07:37.348292 28599 net.cpp:91] Creating Layer zoom_ReLU0_itr1
I0814 08:07:37.348320 28599 net.cpp:432] zoom_ReLU0_itr1 <- zoom_conv0_itr1
I0814 08:07:37.348330 28599 net.cpp:391] zoom_ReLU0_itr1 -> zoom_conv0_itr1 (in-place)
I0814 08:07:37.348819 28599 net.cpp:144] Setting up zoom_ReLU0_itr1
I0814 08:07:37.348829 28599 net.cpp:151] Top shape: 4 32 384 768 (37748736)
I0814 08:07:37.348842 28599 net.cpp:159] Memory required for data: 772894656
I0814 08:07:37.348845 28599 layer_factory.hpp:77] Creating layer zoom_conv0_itr1_zoom_ReLU0_itr1_0_split
I0814 08:07:37.348851 28599 net.cpp:91] Creating Layer zoom_conv0_itr1_zoom_ReLU0_itr1_0_split
I0814 08:07:37.348879 28599 net.cpp:432] zoom_conv0_itr1_zoom_ReLU0_itr1_0_split <- zoom_conv0_itr1
I0814 08:07:37.348887 28599 net.cpp:404] zoom_conv0_itr1_zoom_ReLU0_itr1_0_split -> zoom_conv0_itr1_zoom_ReLU0_itr1_0_split_0
I0814 08:07:37.348894 28599 net.cpp:404] zoom_conv0_itr1_zoom_ReLU0_itr1_0_split -> zoom_conv0_itr1_zoom_ReLU0_itr1_0_split_1
I0814 08:07:37.348938 28599 net.cpp:144] Setting up zoom_conv0_itr1_zoom_ReLU0_itr1_0_split
I0814 08:07:37.348944 28599 net.cpp:151] Top shape: 4 32 384 768 (37748736)
I0814 08:07:37.348986 28599 net.cpp:151] Top shape: 4 32 384 768 (37748736)
I0814 08:07:37.349002 28599 net.cpp:159] Memory required for data: 1074884544
I0814 08:07:37.349007 28599 layer_factory.hpp:77] Creating layer zoom_conv1_itr1
I0814 08:07:37.349027 28599 net.cpp:91] Creating Layer zoom_conv1_itr1
I0814 08:07:37.349032 28599 net.cpp:432] zoom_conv1_itr1 <- zoom_conv0_itr1_zoom_ReLU0_itr1_0_split_0
I0814 08:07:37.349037 28599 net.cpp:404] zoom_conv1_itr1 -> zoom_conv1_itr1
I0814 08:07:37.351229 28599 net.cpp:144] Setting up zoom_conv1_itr1
I0814 08:07:37.351243 28599 net.cpp:151] Top shape: 4 64 192 384 (18874368)
I0814 08:07:37.351245 28599 net.cpp:159] Memory required for data: 1150382016
I0814 08:07:37.351265 28599 layer_factory.hpp:77] Creating layer zoom_ReLU1_itr1
I0814 08:07:37.351271 28599 net.cpp:91] Creating Layer zoom_ReLU1_itr1
I0814 08:07:37.351275 28599 net.cpp:432] zoom_ReLU1_itr1 <- zoom_conv1_itr1
I0814 08:07:37.351279 28599 net.cpp:391] zoom_ReLU1_itr1 -> zoom_conv1_itr1 (in-place)
I0814 08:07:37.351431 28599 net.cpp:144] Setting up zoom_ReLU1_itr1
I0814 08:07:37.351439 28599 net.cpp:151] Top shape: 4 64 192 384 (18874368)
I0814 08:07:37.351451 28599 net.cpp:159] Memory required for data: 1225879488
I0814 08:07:37.351454 28599 layer_factory.hpp:77] Creating layer zoom_conv1b_itr1
I0814 08:07:37.351462 28599 net.cpp:91] Creating Layer zoom_conv1b_itr1
I0814 08:07:37.351465 28599 net.cpp:432] zoom_conv1b_itr1 <- zoom_conv1_itr1
I0814 08:07:37.351470 28599 net.cpp:404] zoom_conv1b_itr1 -> zoom_conv1b_itr1
I0814 08:07:37.353539 28599 net.cpp:144] Setting up zoom_conv1b_itr1
I0814 08:07:37.353560 28599 net.cpp:151] Top shape: 4 64 192 384 (18874368)
I0814 08:07:37.353564 28599 net.cpp:159] Memory required for data: 1301376960
I0814 08:07:37.353569 28599 layer_factory.hpp:77] Creating layer zoom_ReLU1b_itr1
I0814 08:07:37.353574 28599 net.cpp:91] Creating Layer zoom_ReLU1b_itr1
I0814 08:07:37.353586 28599 net.cpp:432] zoom_ReLU1b_itr1 <- zoom_conv1b_itr1
I0814 08:07:37.353590 28599 net.cpp:391] zoom_ReLU1b_itr1 -> zoom_conv1b_itr1 (in-place)
I0814 08:07:37.353724 28599 net.cpp:144] Setting up zoom_ReLU1b_itr1
I0814 08:07:37.353730 28599 net.cpp:151] Top shape: 4 64 192 384 (18874368)
I0814 08:07:37.353744 28599 net.cpp:159] Memory required for data: 1376874432
I0814 08:07:37.353746 28599 layer_factory.hpp:77] Creating layer zoom_conv1b_itr1_zoom_ReLU1b_itr1_0_split
I0814 08:07:37.353751 28599 net.cpp:91] Creating Layer zoom_conv1b_itr1_zoom_ReLU1b_itr1_0_split
I0814 08:07:37.353754 28599 net.cpp:432] zoom_conv1b_itr1_zoom_ReLU1b_itr1_0_split <- zoom_conv1b_itr1
I0814 08:07:37.353759 28599 net.cpp:404] zoom_conv1b_itr1_zoom_ReLU1b_itr1_0_split -> zoom_conv1b_itr1_zoom_ReLU1b_itr1_0_split_0
I0814 08:07:37.353765 28599 net.cpp:404] zoom_conv1b_itr1_zoom_ReLU1b_itr1_0_split -> zoom_conv1b_itr1_zoom_ReLU1b_itr1_0_split_1
I0814 08:07:37.353794 28599 net.cpp:144] Setting up zoom_conv1b_itr1_zoom_ReLU1b_itr1_0_split
I0814 08:07:37.353808 28599 net.cpp:151] Top shape: 4 64 192 384 (18874368)
I0814 08:07:37.353812 28599 net.cpp:151] Top shape: 4 64 192 384 (18874368)
I0814 08:07:37.353823 28599 net.cpp:159] Memory required for data: 1527869376
I0814 08:07:37.353826 28599 layer_factory.hpp:77] Creating layer zoom_conv2_itr1
I0814 08:07:37.353842 28599 net.cpp:91] Creating Layer zoom_conv2_itr1
I0814 08:07:37.353845 28599 net.cpp:432] zoom_conv2_itr1 <- zoom_conv1b_itr1_zoom_ReLU1b_itr1_0_split_0
I0814 08:07:37.353850 28599 net.cpp:404] zoom_conv2_itr1 -> zoom_conv2_itr1
I0814 08:07:37.356015 28599 net.cpp:144] Setting up zoom_conv2_itr1
I0814 08:07:37.356029 28599 net.cpp:151] Top shape: 4 64 96 192 (4718592)
I0814 08:07:37.356031 28599 net.cpp:159] Memory required for data: 1546743744
I0814 08:07:37.356037 28599 layer_factory.hpp:77] Creating layer zoom_ReLU2_itr1
I0814 08:07:37.356043 28599 net.cpp:91] Creating Layer zoom_ReLU2_itr1
I0814 08:07:37.356046 28599 net.cpp:432] zoom_ReLU2_itr1 <- zoom_conv2_itr1
I0814 08:07:37.356050 28599 net.cpp:391] zoom_ReLU2_itr1 -> zoom_conv2_itr1 (in-place)
I0814 08:07:37.356600 28599 net.cpp:144] Setting up zoom_ReLU2_itr1
I0814 08:07:37.356609 28599 net.cpp:151] Top shape: 4 64 96 192 (4718592)
I0814 08:07:37.356612 28599 net.cpp:159] Memory required for data: 1565618112
I0814 08:07:37.356627 28599 layer_factory.hpp:77] Creating layer zoom_conv2b_itr1
I0814 08:07:37.356637 28599 net.cpp:91] Creating Layer zoom_conv2b_itr1
I0814 08:07:37.356640 28599 net.cpp:432] zoom_conv2b_itr1 <- zoom_conv2_itr1
I0814 08:07:37.356645 28599 net.cpp:404] zoom_conv2b_itr1 -> zoom_conv2b_itr1
I0814 08:07:37.358645 28599 net.cpp:144] Setting up zoom_conv2b_itr1
I0814 08:07:37.358656 28599 net.cpp:151] Top shape: 4 64 96 192 (4718592)
I0814 08:07:37.358669 28599 net.cpp:159] Memory required for data: 1584492480
I0814 08:07:37.358675 28599 layer_factory.hpp:77] Creating layer zoom_ReLU2b_itr1
I0814 08:07:37.358680 28599 net.cpp:91] Creating Layer zoom_ReLU2b_itr1
I0814 08:07:37.358682 28599 net.cpp:432] zoom_ReLU2b_itr1 <- zoom_conv2b_itr1
I0814 08:07:37.358687 28599 net.cpp:391] zoom_ReLU2b_itr1 -> zoom_conv2b_itr1 (in-place)
I0814 08:07:37.358820 28599 net.cpp:144] Setting up zoom_ReLU2b_itr1
I0814 08:07:37.358827 28599 net.cpp:151] Top shape: 4 64 96 192 (4718592)
I0814 08:07:37.358839 28599 net.cpp:159] Memory required for data: 1603366848
I0814 08:07:37.358842 28599 layer_factory.hpp:77] Creating layer zoom_deconv2_itr1
I0814 08:07:37.358849 28599 net.cpp:91] Creating Layer zoom_deconv2_itr1
I0814 08:07:37.358852 28599 net.cpp:432] zoom_deconv2_itr1 <- zoom_conv2b_itr1
I0814 08:07:37.358856 28599 net.cpp:404] zoom_deconv2_itr1 -> zoom_deconv2_itr1
I0814 08:07:37.360308 28599 net.cpp:144] Setting up zoom_deconv2_itr1
I0814 08:07:37.360333 28599 net.cpp:151] Top shape: 4 64 192 384 (18874368)
I0814 08:07:37.360347 28599 net.cpp:159] Memory required for data: 1678864320
I0814 08:07:37.360358 28599 layer_factory.hpp:77] Creating layer zoom_ReLU0p_itr1
I0814 08:07:37.360366 28599 net.cpp:91] Creating Layer zoom_ReLU0p_itr1
I0814 08:07:37.360370 28599 net.cpp:432] zoom_ReLU0p_itr1 <- zoom_deconv2_itr1
I0814 08:07:37.360375 28599 net.cpp:391] zoom_ReLU0p_itr1 -> zoom_deconv2_itr1 (in-place)
I0814 08:07:37.360934 28599 net.cpp:144] Setting up zoom_ReLU0p_itr1
I0814 08:07:37.360944 28599 net.cpp:151] Top shape: 4 64 192 384 (18874368)
I0814 08:07:37.360947 28599 net.cpp:159] Memory required for data: 1754361792
I0814 08:07:37.360950 28599 layer_factory.hpp:77] Creating layer zoom_Concat2_itr1
I0814 08:07:37.360965 28599 net.cpp:91] Creating Layer zoom_Concat2_itr1
I0814 08:07:37.360968 28599 net.cpp:432] zoom_Concat2_itr1 <- zoom_conv1b_itr1_zoom_ReLU1b_itr1_0_split_1
I0814 08:07:37.360972 28599 net.cpp:432] zoom_Concat2_itr1 <- zoom_deconv2_itr1
I0814 08:07:37.360976 28599 net.cpp:432] zoom_Concat2_itr1 <- upsampled_disparity2x_itr1
I0814 08:07:37.360981 28599 net.cpp:404] zoom_Concat2_itr1 -> zoom_concat2_itr1
I0814 08:07:37.361021 28599 net.cpp:144] Setting up zoom_Concat2_itr1
I0814 08:07:37.361035 28599 net.cpp:151] Top shape: 4 129 192 384 (38043648)
I0814 08:07:37.361038 28599 net.cpp:159] Memory required for data: 1906536384
I0814 08:07:37.361040 28599 layer_factory.hpp:77] Creating layer zoom_fused1_itr1
I0814 08:07:37.361057 28599 net.cpp:91] Creating Layer zoom_fused1_itr1
I0814 08:07:37.361069 28599 net.cpp:432] zoom_fused1_itr1 <- zoom_concat2_itr1
I0814 08:07:37.361074 28599 net.cpp:404] zoom_fused1_itr1 -> zoom_fused1_itr1
I0814 08:07:37.363404 28599 net.cpp:144] Setting up zoom_fused1_itr1
I0814 08:07:37.363421 28599 net.cpp:151] Top shape: 4 64 192 384 (18874368)
I0814 08:07:37.363425 28599 net.cpp:159] Memory required for data: 1982033856
I0814 08:07:37.363432 28599 layer_factory.hpp:77] Creating layer zoom_deconv1_itr1
I0814 08:07:37.363441 28599 net.cpp:91] Creating Layer zoom_deconv1_itr1
I0814 08:07:37.363446 28599 net.cpp:432] zoom_deconv1_itr1 <- zoom_fused1_itr1
I0814 08:07:37.363451 28599 net.cpp:404] zoom_deconv1_itr1 -> zoom_deconv1_itr1
I0814 08:07:37.364879 28599 net.cpp:144] Setting up zoom_deconv1_itr1
I0814 08:07:37.364897 28599 net.cpp:151] Top shape: 4 32 384 768 (37748736)
I0814 08:07:37.364900 28599 net.cpp:159] Memory required for data: 2133028800
I0814 08:07:37.364915 28599 layer_factory.hpp:77] Creating layer zoom_ReLU1p_itr1
I0814 08:07:37.364923 28599 net.cpp:91] Creating Layer zoom_ReLU1p_itr1
I0814 08:07:37.364940 28599 net.cpp:432] zoom_ReLU1p_itr1 <- zoom_deconv1_itr1
I0814 08:07:37.364946 28599 net.cpp:391] zoom_ReLU1p_itr1 -> zoom_deconv1_itr1 (in-place)
I0814 08:07:37.365469 28599 net.cpp:144] Setting up zoom_ReLU1p_itr1
I0814 08:07:37.365479 28599 net.cpp:151] Top shape: 4 32 384 768 (37748736)
I0814 08:07:37.365483 28599 net.cpp:159] Memory required for data: 2284023744
I0814 08:07:37.365485 28599 layer_factory.hpp:77] Creating layer zoom_Concat1_itr1
I0814 08:07:37.365491 28599 net.cpp:91] Creating Layer zoom_Concat1_itr1
I0814 08:07:37.365504 28599 net.cpp:432] zoom_Concat1_itr1 <- zoom_conv0_itr1_zoom_ReLU0_itr1_0_split_1
I0814 08:07:37.365509 28599 net.cpp:432] zoom_Concat1_itr1 <- zoom_deconv1_itr1
I0814 08:07:37.365512 28599 net.cpp:432] zoom_Concat1_itr1 <- upsampled_disparity_itr1_half_upsample_disparity_itr1_half_0_split_0
I0814 08:07:37.365516 28599 net.cpp:404] zoom_Concat1_itr1 -> zoom_concat1_itr1
I0814 08:07:37.365550 28599 net.cpp:144] Setting up zoom_Concat1_itr1
I0814 08:07:37.365556 28599 net.cpp:151] Top shape: 4 65 384 768 (76677120)
I0814 08:07:37.365566 28599 net.cpp:159] Memory required for data: 2590732224
I0814 08:07:37.365569 28599 layer_factory.hpp:77] Creating layer zoom_fused0_itr1
I0814 08:07:37.365586 28599 net.cpp:91] Creating Layer zoom_fused0_itr1
I0814 08:07:37.365589 28599 net.cpp:432] zoom_fused0_itr1 <- zoom_concat1_itr1
I0814 08:07:37.365603 28599 net.cpp:404] zoom_fused0_itr1 -> zoom_fused0_itr1
I0814 08:07:37.367597 28599 net.cpp:144] Setting up zoom_fused0_itr1
I0814 08:07:37.367612 28599 net.cpp:151] Top shape: 4 32 384 768 (37748736)
I0814 08:07:37.367615 28599 net.cpp:159] Memory required for data: 2741727168
I0814 08:07:37.367621 28599 layer_factory.hpp:77] Creating layer zoom_Convolution0_itr1
I0814 08:07:37.367631 28599 net.cpp:91] Creating Layer zoom_Convolution0_itr1
I0814 08:07:37.367635 28599 net.cpp:432] zoom_Convolution0_itr1 <- zoom_fused0_itr1
I0814 08:07:37.367640 28599 net.cpp:404] zoom_Convolution0_itr1 -> zoom_predict0_itr1
I0814 08:07:37.370065 28599 net.cpp:144] Setting up zoom_Convolution0_itr1
I0814 08:07:37.370088 28599 net.cpp:151] Top shape: 4 1 384 768 (1179648)
I0814 08:07:37.370091 28599 net.cpp:159] Memory required for data: 2746445760
I0814 08:07:37.370097 28599 layer_factory.hpp:77] Creating layer zoom_ReLU_predict_itr1
I0814 08:07:37.370103 28599 net.cpp:91] Creating Layer zoom_ReLU_predict_itr1
I0814 08:07:37.370116 28599 net.cpp:432] zoom_ReLU_predict_itr1 <- zoom_predict0_itr1
I0814 08:07:37.370121 28599 net.cpp:404] zoom_ReLU_predict_itr1 -> zoom_predict0n_itr1
I0814 08:07:37.370630 28599 net.cpp:144] Setting up zoom_ReLU_predict_itr1
I0814 08:07:37.370640 28599 net.cpp:151] Top shape: 4 1 384 768 (1179648)
I0814 08:07:37.370652 28599 net.cpp:159] Memory required for data: 2751164352
I0814 08:07:37.370656 28599 layer_factory.hpp:77] Creating layer zoom_disp_loss0
I0814 08:07:37.370667 28599 net.cpp:91] Creating Layer zoom_disp_loss0
I0814 08:07:37.370671 28599 net.cpp:432] zoom_disp_loss0 <- zoom_predict0n_itr1
I0814 08:07:37.370676 28599 net.cpp:432] zoom_disp_loss0 <- disp_gt_aug_norm_disp_gt_aug_norm_0_split_2
…
6 3221 1299 4136 1806 1507 1837 1326 2943 3455 699 1940 1234 2904 3274 4309 3358 1350 2357 304 3696 4032 3012 3567 887 2750 1893 1265 775 2938 1577 530 4074 1007 3699 1937 2367 3883 2759 3867 194 83 290 3569 94 1006 808 3733 1004 3208I0814 08:07:37.389566 28599 custom_data_layer.cpp:541] output 0 data size: 1,3,540,960
I0814 08:07:37.389607 28599 custom_data_layer.cpp:541] output 1 data size: 1,3,540,960
I0814 08:07:37.389628 28599 custom_data_layer.cpp:541] output 2 data size: 1,1,540,960
I0814 08:07:37.399215 28599 net.cpp:144] Setting up CustomData2
I0814 08:07:37.399263 28599 net.cpp:151] Top shape: 1 3 540 960 (1555200)
I0814 08:07:37.399269 28599 net.cpp:151] Top shape: 1 3 540 960 (1555200)
I0814 08:07:37.399273 28599 net.cpp:151] Top shape: 1 1 540 960 (518400)
I0814 08:07:37.399277 28599 net.cpp:159] Memory required for data: 14515200
I0814 08:07:37.399286 28599 layer_factory.hpp:77] Creating layer blob0_CustomData2_0_split
I0814 08:07:37.399304 28599 net.cpp:91] Creating Layer blob0_CustomData2_0_split
I0814 08:07:37.399310 28599 net.cpp:432] blob0_CustomData2_0_split <- blob0
I0814 08:07:37.399319 28599 net.cpp:404] blob0_CustomData2_0_split -> blob0_CustomData2_0_split_0
I0814 08:07:37.399333 28599 net.cpp:404] blob0_CustomData2_0_split -> blob0_CustomData2_0_split_1
I0814 08:07:37.399487 28599 net.cpp:144] Setting up blob0_CustomData2_0_split
I0814 08:07:37.399492 28599 net.cpp:151] Top shape: 1 3 540 960 (1555200)
I0814 08:07:37.399495 28599 net.cpp:151] Top shape: 1 3 540 960 (1555200)
I0814 08:07:37.399498 28599 net.cpp:159] Memory required for data: 26956800
I0814 08:07:37.399502 28599 layer_factory.hpp:77] Creating layer blob1_CustomData2_1_split
I0814 08:07:37.399507 28599 net.cpp:91] Creating Layer blob1_CustomData2_1_split
I0814 08:07:37.399511 28599 net.cpp:432] blob1_CustomData2_1_split <- blob1
I0814 08:07:37.399516 28599 net.cpp:404] blob1_CustomData2_1_split -> blob1_CustomData2_1_split_0
I0814 08:07:37.399521 28599 net.cpp:404] blob1_CustomData2_1_split -> blob1_CustomData2_1_split_1
I0814 08:07:37.399551 28599 net.cpp:144] Setting up blob1_CustomData2_1_split
I0814 08:07:37.399588 28599 net.cpp:151] Top shape: 1 3 540 960 (1555200)
I0814 08:07:37.399592 28599 net.cpp:151] Top shape: 1 3 540 960 (1555200)
I0814 08:07:37.399595 28599 net.cpp:159] Memory required for data: 39398400
I0814 08:07:37.399598 28599 layer_factory.hpp:77] Creating layer blob2_CustomData2_2_split
I0814 08:07:37.399605 28599 net.cpp:91] Creating Layer blob2_CustomData2_2_split
I0814 08:07:37.399608 28599 net.cpp:432] blob2_CustomData2_2_split <- blob2
I0814 08:07:37.399612 28599 net.cpp:404] blob2_CustomData2_2_split -> blob2_CustomData2_2_split_0
I0814 08:07:37.399617 28599 net.cpp:404] blob2_CustomData2_2_split -> blob2_CustomData2_2_split_1
I0814 08:07:37.399651 28599 net.cpp:144] Setting up blob2_CustomData2_2_split
I0814 08:07:37.399654 28599 net.cpp:151] Top shape: 1 1 540 960 (518400)
I0814 08:07:37.399658 28599 net.cpp:151] Top shape: 1 1 540 960 (518400)
I0814 08:07:37.399662 28599 net.cpp:159] Memory required for data: 43545600
I0814 08:07:37.399664 28599 layer_factory.hpp:77] Creating layer Eltwise1
I0814 08:07:37.399674 28599 net.cpp:91] Creating Layer Eltwise1
I0814 08:07:37.399677 28599 net.cpp:432] Eltwise1 <- blob0_CustomData2_0_split_0
I0814 08:07:37.399682 28599 net.cpp:404] Eltwise1 -> blob3
I0814 08:07:37.399703 28599 net.cpp:144] Setting up Eltwise1
I0814 08:07:37.399708 28599 net.cpp:151] Top shape: 1 3 540 960 (1555200)
I0814 08:07:37.399710 28599 net.cpp:159] Memory required for data: 49766400
I0814 08:07:37.399713 28599 layer_factory.hpp:77] Creating layer blob3_Eltwise1_0_split
I0814 08:07:37.399719 28599 net.cpp:91] Creating Layer blob3_Eltwise1_0_split
I0814 08:07:37.399721 28599 net.cpp:432] blob3_Eltwise1_0_split <- blob3
I0814 08:07:37.399725 28599 net.cpp:404] blob3_Eltwise1_0_split -> blob3_Eltwise1_0_split_0
I0814 08:07:37.399730 28599 net.cpp:404] blob3_Eltwise1_0_split -> blob3_Eltwise1_0_split_1
I0814 08:07:37.399757 28599 net.cpp:144] Setting up blob3_Eltwise1_0_split
I0814 08:07:37.399761 28599 net.cpp:151] Top shape: 1 3 540 960 (1555200)
I0814 08:07:37.399765 28599 net.cpp:151] Top shape: 1 3 540 960 (1555200)
I0814 08:07:37.399766 28599 net.cpp:159] Memory required for data: 62208000
I0814 08:07:37.399770 28599 layer_factory.hpp:77] Creating layer Eltwise2
I0814 08:07:37.399776 28599 net.cpp:91] Creating Layer Eltwise2
I0814 08:07:37.399780 28599 net.cpp:432] Eltwise2 <- blob1_CustomData2_1_split_0
I0814 08:07:37.399783 28599 net.cpp:404] Eltwise2 -> blob4
I0814 08:07:37.399801 28599 net.cpp:144] Setting up Eltwise2
I0814 08:07:37.399806 28599 net.cpp:151] Top shape: 1 3 540 960 (1555200)
I0814 08:07:37.399807 28599 net.cpp:159] Memory required for data: 68428800
I0814 08:07:37.399811 28599 layer_factory.hpp:77] Creating layer img0s_aug
I0814 08:07:37.399826 28599 net.cpp:91] Creating Layer img0s_aug
I0814 08:07:37.399828 28599 net.cpp:432] img0s_aug <- blob3_Eltwise1_0_split_0
I0814 08:07:37.399834 28599 net.cpp:404] img0s_aug -> img0_aug
I0814 08:07:37.399844 28599 net.cpp:404] img0s_aug -> blob6
W0814 08:07:37.399852 28599 data_augmentation_layer.cpp:40] DataAugmentationLayer only runs Reshape on setup
I0814 08:07:37.399862 28599 data_augmentation_layer.cpp:45] Recompute mean
W0814 08:07:37.400001 28599 data_augmentation_layer.cpp:77] Reshape of Augmentation layer should only be called once? Check this
I0814 08:07:37.400053 28599 data_augmentation_layer.cpp:123] Emitting 42 augmentation params
I0814 08:07:37.401242 28599 net.cpp:144] Setting up img0s_aug
I0814 08:07:37.401286 28599 net.cpp:151] Top shape: 1 3 384 768 (884736)
I0814 08:07:37.401290 28599 net.cpp:151] Top shape: 1 42 1 1 (42)
I0814 08:07:37.401293 28599 net.cpp:159] Memory required for data: 71967912
I0814 08:07:37.401314 28599 layer_factory.hpp:77] Creating layer img0_aug_img0s_aug_0_split
I0814 08:07:37.401332 28599 net.cpp:91] Creating Layer img0_aug_img0s_aug_0_split
I0814 08:07:37.401337 28599 net.cpp:432] img0_aug_img0s_aug_0_split <- img0_aug
I0814 08:07:37.401345 28599 net.cpp:404] img0_aug_img0s_aug_0_split -> img0_aug_img0s_aug_0_split_0
I0814 08:07:37.401383 28599 net.cpp:404] img0_aug_img0s_aug_0_split -> img0_aug_img0s_aug_0_split_1
I0814 08:07:37.401433 28599 net.cpp:144] Setting up img0_aug_img0s_aug_0_split
I0814 08:07:37.401438 28599 net.cpp:151] Top shape: 1 3 384 768 (884736)
I0814 08:07:37.401442 28599 net.cpp:151] Top shape: 1 3 384 768 (884736)
I0814 08:07:37.401444 28599 net.cpp:159] Memory required for data: 79045800
I0814 08:07:37.401448 28599 layer_factory.hpp:77] Creating layer blob6_img0s_aug_1_split
I0814 08:07:37.401453 28599 net.cpp:91] Creating Layer blob6_img0s_aug_1_split
I0814 08:07:37.401455 28599 net.cpp:432] blob6_img0s_aug_1_split <- blob6
I0814 08:07:37.401459 28599 net.cpp:404] blob6_img0s_aug_1_split -> blob6_img0s_aug_1_split_0
I0814 08:07:37.401464 28599 net.cpp:404] blob6_img0s_aug_1_split -> blob6_img0s_aug_1_split_1
I0814 08:07:37.401492 28599 net.cpp:144] Setting up blob6_img0s_aug_1_split
I0814 08:07:37.401496 28599 net.cpp:151] Top shape: 1 42 1 1 (42)
I0814 08:07:37.401500 28599 net.cpp:151] Top shape: 1 42 1 1 (42)
I0814 08:07:37.401502 28599 net.cpp:159] Memory required for data: 79046136
I0814 08:07:37.401505 28599 layer_factory.hpp:77] Creating layer aug_params1
I0814 08:07:37.401520 28599 net.cpp:91] Creating Layer aug_params1
I0814 08:07:37.401522 28599 net.cpp:432] aug_params1 <- blob6_img0s_aug_1_split_0
I0814 08:07:37.401526 28599 net.cpp:432] aug_params1 <- blob3_Eltwise1_0_split_1
I0814 08:07:37.401530 28599 net.cpp:432] aug_params1 <- img0_aug_img0s_aug_0_split_0
I0814 08:07:37.401535 28599 net.cpp:404] aug_params1 -> blob7
W0814 08:07:37.401542 28599 generate_augmentation_parameters_layer.cpp:36] GenerateAugmentationParametersLayer only runs Reshape only on setup
I0814 08:07:37.401556 28599 generate_augmentation_parameters_layer.cpp:68] mode: add
I0814 08:07:37.401576 28599 net.cpp:144] Setting up aug_params1
I0814 08:07:37.401579 28599 net.cpp:151] Top shape: 1 42 1 1 (42)
I0814 08:07:37.401582 28599 net.cpp:159] Memory required for data: 79046304
I0814 08:07:37.401585 28599 layer_factory.hpp:77] Creating layer blob7_aug_params1_0_split
I0814 08:07:37.401589 28599 net.cpp:91] Creating Layer blob7_aug_params1_0_split
I0814 08:07:37.401592 28599 net.cpp:432] blob7_aug_params1_0_split <- blob7
I0814 08:07:37.401597 28599 net.cpp:404] blob7_aug_params1_0_split -> blob7_aug_params1_0_split_0
I0814 08:07:37.401602 28599 net.cpp:404] blob7_aug_params1_0_split -> blob7_aug_params1_0_split_1
I0814 08:07:37.401628 28599 net.cpp:144] Setting up blob7_aug_params1_0_split
I0814 08:07:37.401633 28599 net.cpp:151] Top shape: 1 42 1 1 (42)
I0814 08:07:37.401634 28599 net.cpp:151] Top shape: 1 42 1 1 (42)
I0814 08:07:37.401638 28599 net.cpp:159] Memory required for data: 79046640
I0814 08:07:37.401640 28599 layer_factory.hpp:77] Creating layer img1s_aug
I0814 08:07:37.401648 28599 net.cpp:91] Creating Layer img1s_aug
I0814 08:07:37.401650 28599 net.cpp:432] img1s_aug <- blob4
I0814 08:07:37.401654 28599 net.cpp:432] img1s_aug <- blob7_aug_params1_0_split_0
I0814 08:07:37.401659 28599 net.cpp:404] img1s_aug -> img1_aug
W0814 08:07:37.401664 28599 data_augmentation_layer.cpp:40] DataAugmentationLayer only runs Reshape on setup
I0814 08:07:37.401669 28599 data_augmentation_layer.cpp:45] Recompute mean
W0814 08:07:37.401764 28599 data_augmentation_layer.cpp:77] Reshape of Augmentation layer should only be called once? Check this
I0814 08:07:37.401792 28599 data_augmentation_layer.cpp:116] Receiving 42 augmentation params
I0814 08:07:37.402593 28599 net.cpp:144] Setting up img1s_aug
I0814 08:07:37.402632 28599 net.cpp:151] Top shape: 1 3 384 768 (884736)
I0814 08:07:37.402637 28599 net.cpp:159] Memory required for data: 82585584
I0814 08:07:37.402653 28599 layer_factory.hpp:77] Creating layer DummyData2
I0814 08:07:37.402673 28599 net.cpp:91] Creating Layer DummyData2
I0814 08:07:37.402678 28599 net.cpp:404] DummyData2 -> blob9
I0814 08:07:37.403555 28599 net.cpp:144] Setting up DummyData2
I0814 08:07:37.403569 28599 net.cpp:151] Top shape: 1 1 540 960 (518400)
I0814 08:07:37.403573 28599 net.cpp:159] Memory required for data: 84659184
I0814 08:07:37.403591 28599 layer_factory.hpp:77] Creating layer blob9_DummyData2_0_split
I0814 08:07:37.403597 28599 net.cpp:91] Creating Layer blob9_DummyData2_0_split
I0814 08:07:37.403601 28599 net.cpp:432] blob9_DummyData2_0_split <- blob9
I0814 08:07:37.403606 28599 net.cpp:404] blob9_DummyData2_0_split -> blob9_DummyData2_0_split_0
I0814 08:07:37.403612 28599 net.cpp:404] blob9_DummyData2_0_split -> blob9_DummyData2_0_split_1
I0814 08:07:37.403656 28599 net.cpp:144] Setting up blob9_DummyData2_0_split
I0814 08:07:37.403659 28599 net.cpp:151] Top shape: 1 1 540 960 (518400)
I0814 08:07:37.403663 28599 net.cpp:151] Top shape: 1 1 540 960 (518400)
I0814 08:07:37.403666 28599 net.cpp:159] Memory required for data: 88806384
I0814 08:07:37.403667 28599 layer_factory.hpp:77] Creating layer Concat1
I0814 08:07:37.403673 28599 net.cpp:91] Creating Layer Concat1
I0814 08:07:37.403676 28599 net.cpp:432] Concat1 <- blob2_CustomData2_2_split_0
I0814 08:07:37.403681 28599 net.cpp:432] Concat1 <- blob9_DummyData2_0_split_0
I0814 08:07:37.403684 28599 net.cpp:404] Concat1 -> blob10
I0814 08:07:37.403702 28599 net.cpp:144] Setting up Concat1
I0814 08:07:37.403705 28599 net.cpp:151] Top shape: 1 2 540 960 (1036800)
I0814 08:07:37.403707 28599 net.cpp:159] Memory required for data: 92953584
I0814 08:07:37.403710 28599 layer_factory.hpp:77] Creating layer FlowAugmentation1
I0814 08:07:37.403718 28599 net.cpp:91] Creating Layer FlowAugmentation1
I0814 08:07:37.403722 28599 net.cpp:432] FlowAugmentation1 <- blob10
I0814 08:07:37.403724 28599 net.cpp:432] FlowAugmentation1 <- blob6_img0s_aug_1_split_1
I0814 08:07:37.403728 28599 net.cpp:432] FlowAugmentation1 <- blob7_aug_params1_0_split_1
I0814 08:07:37.403733 28599 net.cpp:404] FlowAugmentation1 -> blob11
W0814 08:07:37.403738 28599 flow_augmentation_layer.cpp:36] FlowAugmentationLayer only runs Reshape only on setup
I0814 08:07:37.403775 28599 net.cpp:144] Setting up FlowAugmentation1
I0814 08:07:37.403779 28599 net.cpp:151] Top shape: 1 2 384 768 (589824)
I0814 08:07:37.403781 28599 net.cpp:159] Memory required for data: 95312880
I0814 08:07:37.403784 28599 layer_factory.hpp:77] Creating layer Slice1
I0814 08:07:37.403790 28599 net.cpp:91] Creating Layer Slice1
I0814 08:07:37.403794 28599 net.cpp:432] Slice1 <- blob11
I0814 08:07:37.403797 28599 net.cpp:404] Slice1 -> disp_gt_aug
I0814 08:07:37.403802 28599 net.cpp:404] Slice1 -> blob13
I0814 08:07:37.403836 28599 net.cpp:144] Setting up Slice1
I0814 08:07:37.403839 28599 net.cpp:151] Top shape: 1 1 384 768 (294912)
I0814 08:07:37.403843 28599 net.cpp:151] Top shape: 1 1 384 768 (294912)
I0814 08:07:37.403846 28599 net.cpp:159] Memory required for data: 97672176
I0814 08:07:37.403848 28599 layer_factory.hpp:77] Creating layer ref_disp_scale
I0814 08:07:37.403854 28599 net.cpp:91] Creating Layer ref_disp_scale
I0814 08:07:37.403857 28599 net.cpp:404] ref_disp_scale -> ref_disp_scale
I0814 08:07:37.403905 28599 net.cpp:144] Setting up ref_disp_scale
I0814 08:07:37.403909 28599 net.cpp:151] Top shape: 1 1 96 192 (18432)
I0814 08:07:37.403913 28599 net.cpp:159] Memory required for data: 97745904
I0814 08:07:37.403914 28599 layer_factory.hpp:77] Creating layer ref_disp_scale_half
I0814 08:07:37.403919 28599 net.cpp:91] Creating Layer ref_disp_scale_half
I0814 08:07:37.403923 28599 net.cpp:404] ref_disp_scale_half -> ref_disp_scale_half
I0814 08:07:37.404434 28599 net.cpp:144] Setting up ref_disp_scale_half
I0814 08:07:37.404444 28599 net.cpp:151] Top shape: 1 4 192 384 (294912)
I0814 08:07:37.404448 28599 net.cpp:159] Memory required for data: 98925552
I0814 08:07:37.404450 28599 layer_factory.hpp:77] Creating layer disp_gt_aug_norm
I0814 08:07:37.404456 28599 net.cpp:91] Creating Layer disp_gt_aug_norm
I0814 08:07:37.404459 28599 net.cpp:432] disp_gt_aug_norm <- disp_gt_aug
I0814 08:07:37.404464 28599 net.cpp:404] disp_gt_aug_norm -> disp_gt_aug_norm
I0814 08:07:37.404491 28599 net.cpp:144] Setting up disp_gt_aug_norm
I0814 08:07:37.404496 28599 net.cpp:151] Top shape: 1 1 384 768 (294912)
I0814 08:07:37.404500 28599 net.cpp:159] Memory required for data: 100105200
I0814 08:07:37.404510 28599 layer_factory.hpp:77] Creating layer disp_gt_aug_norm_disp_gt_aug_norm_0_split
I0814 08:07:37.404515 28599 net.cpp:91] Creating Layer disp_gt_aug_norm_disp_gt_aug_norm_0_split
I0814 08:07:37.404517 28599 net.cpp:432] disp_gt_aug_norm_disp_gt_aug_norm_0_split <- disp_gt_aug_norm
I0814 08:07:37.404521 28599 net.cpp:404] disp_gt_aug_norm_disp_gt_aug_norm_0_split -> disp_gt_aug_norm_disp_gt_aug_norm_0_split_0
I0814 08:07:37.404526 28599 net.cpp:404] disp_gt_aug_norm_disp_gt_aug_norm_0_split -> disp_gt_aug_norm_disp_gt_aug_norm_0_split_1
I0814 08:07:37.404531 28599 net.cpp:404] disp_gt_aug_norm_disp_gt_aug_norm_0_split -> disp_gt_aug_norm_disp_gt_aug_norm_0_split_2
I0814 08:07:37.404536 28599 net.cpp:404] disp_gt_aug_norm_disp_gt_aug_norm_0_split -> disp_gt_aug_norm_disp_gt_aug_norm_0_split_3
I0814 08:07:37.404539 28599 net.cpp:404] disp_gt_aug_norm_disp_gt_aug_norm_0_split -> disp_gt_aug_norm_disp_gt_aug_norm_0_split_4
I0814 08:07:37.404593 28599 net.cpp:144] Setting up disp_gt_aug_norm_disp_gt_aug_norm_0_split
I0814 08:07:37.404597 28599 net.cpp:151] Top shape: 1 1 384 768 (294912)
I0814 08:07:37.404600 28599 net.cpp:151] Top shape: 1 1 384 768 (294912)
I0814 08:07:37.404603 28599 net.cpp:151] Top shape: 1 1 384 768 (294912)
I0814 08:07:37.404606 28599 net.cpp:151] Top shape: 1 1 384 768 (294912)
I0814 08:07:37.404608 28599 net.cpp:151] Top shape: 1 1 384 768 (294912)
I0814 08:07:37.404611 28599 net.cpp:159] Memory required for data: 106003440
I0814 08:07:37.404613 28599 layer_factory.hpp:77] Creating layer disp_gt_aug_norm_down
I0814 08:07:37.404618 28599 net.cpp:91] Creating Layer disp_gt_aug_norm_down
I0814 08:07:37.404621 28599 net.cpp:432] disp_gt_aug_norm_down <- disp_gt_aug_norm_disp_gt_aug_norm_0_split_0
I0814 08:07:37.404624 28599 net.cpp:432] disp_gt_aug_norm_down <- ref_disp_scale
I0814 08:07:37.404628 28599 net.cpp:404] disp_gt_aug_norm_down -> disp_gt_aug_norm_down
W0814 08:07:37.404633 28599 downsample_layer.cpp:25] DownsampleLayer only runs Reshape on setup
I0814 08:07:37.404651 28599 net.cpp:144] Setting up disp_gt_aug_norm_down
I0814 08:07:37.404655 28599 net.cpp:151] Top shape: 1 1 96 192 (18432)
I0814 08:07:37.404659 28599 net.cpp:159] Memory required for data: 106077168
I0814 08:07:37.404660 28599 layer_factory.hpp:77] Creating layer disp_gt_aug_norm_down_disp_gt_aug_norm_down_0_split
I0814 08:07:37.404664 28599 net.cpp:91] Creating Layer disp_gt_aug_norm_down_disp_gt_aug_norm_down_0_split
I0814 08:07:37.404667 28599 net.cpp:432] disp_gt_aug_norm_down_disp_gt_aug_norm_down_0_split <- disp_gt_aug_norm_down
I0814 08:07:37.404671 28599 net.cpp:404] disp_gt_aug_norm_down_disp_gt_aug_norm_down_0_split -> disp_gt_aug_norm_down_disp_gt_aug_norm_down_0_split_0
I0814 08:07:37.404676 28599 net.cpp:404] disp_gt_aug_norm_down_disp_gt_aug_norm_down_0_split -> disp_gt_aug_norm_down_disp_gt_aug_norm_down_0_split_1
I0814 08:07:37.404701 28599 net.cpp:144] Setting up disp_gt_aug_norm_down_disp_gt_aug_norm_down_0_split
I0814 08:07:37.404705 28599 net.cpp:151] Top shape: 1 1 96 192 (18432)
I0814 08:07:37.404707 28599 net.cpp:151] Top shape: 1 1 96 192 (18432)
I0814 08:07:37.404711 28599 net.cpp:159] Memory required for data: 106224624
I0814 08:07:37.404712 28599 layer_factory.hpp:77] Creating layer disp_gt_aug_norm_down_half
I0814 08:07:37.404716 28599 net.cpp:91] Creating Layer disp_gt_aug_norm_down_half
I0814 08:07:37.404719 28599 net.cpp:432] disp_gt_aug_norm_down_half <- disp_gt_aug_norm_disp_gt_aug_norm_0_split_1
I0814 08:07:37.404722 28599 net.cpp:432] disp_gt_aug_norm_down_half <- ref_disp_scale_half
I0814 08:07:37.404726 28599 net.cpp:404] disp_gt_aug_norm_down_half -> disp_gt_aug_norm_down_half
W0814 08:07:37.404731 28599 downsample_layer.cpp:25] DownsampleLayer only runs Reshape on setup
I0814 08:07:37.404747 28599 net.cpp:144] Setting up disp_gt_aug_norm_down_half
I0814 08:07:37.404750 28599 net.cpp:151] Top shape: 1 1 192 384 (73728)
I0814 08:07:37.404752 28599 net.cpp:159] Memory required for data: 106519536
I0814 08:07:37.404755 28599 layer_factory.hpp:77] Creating layer upsample_disparity_itr1_half
I0814 08:07:37.404764 28599 net.cpp:91] Creating Layer upsample_disparity_itr1_half
I0814 08:07:37.404768 28599 net.cpp:432] upsample_disparity_itr1_half <- disp_gt_aug_norm_down_half
I0814 08:07:37.404772 28599 net.cpp:404] upsample_disparity_itr1_half -> upsampled_disparity_itr1_half
W0814 08:07:37.404778 28599 resample_layer.cpp:28] ResampleLayer only runs Reshape on setup
I0814 08:07:37.404794 28599 net.cpp:144] Setting up upsample_disparity_itr1_half
I0814 08:07:37.404798 28599 net.cpp:151] Top shape: 1 1 384 768 (294912)
I0814 08:07:37.404800 28599 net.cpp:159] Memory required for data: 107699184
I0814 08:07:37.404803 28599 layer_factory.hpp:77] Creating layer upsampled_disparity_itr1_half_upsample_disparity_itr1_half_0_split
I0814 08:07:37.404806 28599 net.cpp:91] Creating Layer upsampled_disparity_itr1_half_upsample_disparity_itr1_half_0_split
I0814 08:07:37.404809 28599 net.cpp:432] upsampled_disparity_itr1_half_upsample_disparity_itr1_half_0_split <- upsampled_disparity_itr1_half
I0814 08:07:37.404814 28599 net.cpp:404] upsampled_disparity_itr1_half_upsample_disparity_itr1_half_0_split -> upsampled_disparity_itr1_half_upsample_disparity_itr1_half_0_split_0
I0814 08:07:37.404817 28599 net.cpp:404] upsampled_disparity_itr1_half_upsample_disparity_itr1_half_0_split -> upsampled_disparity_itr1_half_upsample_disparity_itr1_half_0_split_1
I0814 08:07:37.404842 28599 net.cpp:144] Setting up upsampled_disparity_itr1_half_upsample_disparity_itr1_half_0_split
I0814 08:07:37.404846 28599 net.cpp:151] Top shape: 1 1 384 768 (294912)
I0814 08:07:37.404850 28599 net.cpp:151] Top shape: 1 1 384 768 (294912)
I0814 08:07:37.404851 28599 net.cpp:159] Memory required for data: 110058480
I0814 08:07:37.404855 28599 layer_factory.hpp:77] Creating layer Silence1
I0814 08:07:37.404857 28599 net.cpp:91] Creating Layer Silence1
I0814 08:07:37.404860 28599 net.cpp:432] Silence1 <- blob0_CustomData2_0_split_1
I0814 08:07:37.404865 28599 net.cpp:144] Setting up Silence1
I0814 08:07:37.404866 28599 net.cpp:159] Memory required for data: 110058480
…
I0814 08:07:37.404934 28599 net.cpp:159] Memory required for data: 110058480
I0814 08:07:37.404937 28599 layer_factory.hpp:77] Creating layer upsample_disparity_itr1
I0814 08:07:37.404940 28599 net.cpp:91] Creating Layer upsample_disparity_itr1
I0814 08:07:37.404943 28599 net.cpp:432] upsample_disparity_itr1 <- disp_gt_aug_norm_down_disp_gt_aug_norm_down_0_split_0
I0814 08:07:37.404952 28599 net.cpp:404] upsample_disparity_itr1 -> upsampled_disparity_itr1
W0814 08:07:37.404956 28599 resample_layer.cpp:28] ResampleLayer only runs Reshape on setup
I0814 08:07:37.404974 28599 net.cpp:144] Setting up upsample_disparity_itr1
I0814 08:07:37.404978 28599 net.cpp:151] Top shape: 1 1 384 768 (294912)
I0814 08:07:37.404980 28599 net.cpp:159] Memory required for data: 111238128
I0814 08:07:37.404983 28599 layer_factory.hpp:77] Creating layer upsampled_disparity_itr1_upsample_disparity_itr1_0_split
I0814 08:07:37.404986 28599 net.cpp:91] Creating Layer upsampled_disparity_itr1_upsample_disparity_itr1_0_split
I0814 08:07:37.404989 28599 net.cpp:432] upsampled_disparity_itr1_upsample_disparity_itr1_0_split <- upsampled_disparity_itr1
I0814 08:07:37.404994 28599 net.cpp:404] upsampled_disparity_itr1_upsample_disparity_itr1_0_split -> upsampled_disparity_itr1_upsample_disparity_itr1_0_split_0
I0814 08:07:37.404999 28599 net.cpp:404] upsampled_disparity_itr1_upsample_disparity_itr1_0_split -> upsampled_disparity_itr1_upsample_disparity_itr1_0_split_1
I0814 08:07:37.405022 28599 net.cpp:144] Setting up upsampled_disparity_itr1_upsample_disparity_itr1_0_split
I0814 08:07:37.405025 28599 net.cpp:151] Top shape: 1 1 384 768 (294912)
I0814 08:07:37.405028 28599 net.cpp:151] Top shape: 1 1 384 768 (294912)
I0814 08:07:37.405031 28599 net.cpp:159] Memory required for data: 113597424
I0814 08:07:37.405033 28599 layer_factory.hpp:77] Creating layer upsample_disparity2x_itr1
I0814 08:07:37.405037 28599 net.cpp:91] Creating Layer upsample_disparity2x_itr1
I0814 08:07:37.405040 28599 net.cpp:432] upsample_disparity2x_itr1 <- disp_gt_aug_norm_down_disp_gt_aug_norm_down_0_split_1
I0814 08:07:37.405045 28599 net.cpp:404] upsample_disparity2x_itr1 -> upsampled_disparity2x_itr1
W0814 08:07:37.405048 28599 resample_layer.cpp:28] ResampleLayer only runs Reshape on setup
I0814 08:07:37.405064 28599 net.cpp:144] Setting up upsample_disparity2x_itr1
I0814 08:07:37.405068 28599 net.cpp:151] Top shape: 1 1 192 384 (73728)
I0814 08:07:37.405071 28599 net.cpp:159] Memory required for data: 113892336
I0814 08:07:37.405073 28599 layer_factory.hpp:77] Creating layer concat_input_itr1
I0814 08:07:37.405077 28599 net.cpp:91] Creating Layer concat_input_itr1
I0814 08:07:37.405081 28599 net.cpp:432] concat_input_itr1 <- img0_aug_img0s_aug_0_split_1
I0814 08:07:37.405084 28599 net.cpp:432] concat_input_itr1 <- upsampled_disparity_itr1_upsample_disparity_itr1_0_split_0
I0814 08:07:37.405087 28599 net.cpp:404] concat_input_itr1 -> zoom_input_itr1
I0814 08:07:37.405103 28599 net.cpp:144] Setting up concat_input_itr1
I0814 08:07:37.405107 28599 net.cpp:151] Top shape: 1 4 384 768 (1179648)
I0814 08:07:37.405109 28599 net.cpp:159] Memory required for data: 118610928
I0814 08:07:37.405112 28599 layer_factory.hpp:77] Creating layer zoom_conv0_itr1
I0814 08:07:37.405120 28599 net.cpp:91] Creating Layer zoom_conv0_itr1
I0814 08:07:37.405122 28599 net.cpp:432] zoom_conv0_itr1 <- zoom_input_itr1
I0814 08:07:37.405128 28599 net.cpp:404] zoom_conv0_itr1 -> zoom_conv0_itr1
I0814 08:07:37.407521 28599 net.cpp:144] Setting up zoom_conv0_itr1
I0814 08:07:37.407537 28599 net.cpp:151] Top shape: 1 32 384 768 (9437184)
I0814 08:07:37.407541 28599 net.cpp:159] Memory required for data: 156359664
I0814 08:07:37.407547 28599 layer_factory.hpp:77] Creating layer zoom_ReLU0_itr1
I0814 08:07:37.407554 28599 net.cpp:91] Creating Layer zoom_ReLU0_itr1
I0814 08:07:37.407557 28599 net.cpp:432] zoom_ReLU0_itr1 <- zoom_conv0_itr1
I0814 08:07:37.407562 28599 net.cpp:391] zoom_ReLU0_itr1 -> zoom_conv0_itr1 (in-place)
I0814 08:07:37.407707 28599 net.cpp:144] Setting up zoom_ReLU0_itr1
I0814 08:07:37.407714 28599 net.cpp:151] Top shape: 1 32 384 768 (9437184)
I0814 08:07:37.407716 28599 net.cpp:159] Memory required for data: 194108400
I0814 08:07:37.407719 28599 layer_factory.hpp:77] Creating layer zoom_conv0_itr1_zoom_ReLU0_itr1_0_split
I0814 08:07:37.407724 28599 net.cpp:91] Creating Layer zoom_conv0_itr1_zoom_ReLU0_itr1_0_split
I0814 08:07:37.407737 28599 net.cpp:432] zoom_conv0_itr1_zoom_ReLU0_itr1_0_split <- zoom_conv0_itr1
I0814 08:07:37.407742 28599 net.cpp:404] zoom_conv0_itr1_zoom_ReLU0_itr1_0_split -> zoom_conv0_itr1_zoom_ReLU0_itr1_0_split_0
I0814 08:07:37.407748 28599 net.cpp:404] zoom_conv0_itr1_zoom_ReLU0_itr1_0_split -> zoom_conv0_itr1_zoom_ReLU0_itr1_0_split_1
I0814 08:07:37.407781 28599 net.cpp:144] Setting up zoom_conv0_itr1_zoom_ReLU0_itr1_0_split
I0814 08:07:37.407786 28599 net.cpp:151] Top shape: 1 32 384 768 (9437184)
I0814 08:07:37.407789 28599 net.cpp:151] Top shape: 1 32 384 768 (9437184)
I0814 08:07:37.407791 28599 net.cpp:159] Memory required for data: 269605872
I0814 08:07:37.407793 28599 layer_factory.hpp:77] Creating layer zoom_conv1_itr1
I0814 08:07:37.407801 28599 net.cpp:91] Creating Layer zoom_conv1_itr1
I0814 08:07:37.407804 28599 net.cpp:432] zoom_conv1_itr1 <- zoom_conv0_itr1_zoom_ReLU0_itr1_0_split_0
I0814 08:07:37.407809 28599 net.cpp:404] zoom_conv1_itr1 -> zoom_conv1_itr1
I0814 08:07:37.410030 28599 net.cpp:144] Setting up zoom_conv1_itr1
I0814 08:07:37.410042 28599 net.cpp:151] Top shape: 1 64 192 384 (4718592)
I0814 08:07:37.410044 28599 net.cpp:159] Memory required for data: 288480240
I0814 08:07:37.410053 28599 layer_factory.hpp:77] Creating layer zoom_ReLU1_itr1
I0814 08:07:37.410058 28599 net.cpp:91] Creating Layer zoom_ReLU1_itr1
I0814 08:07:37.410061 28599 net.cpp:432] zoom_ReLU1_itr1 <- zoom_conv1_itr1
I0814 08:07:37.410065 28599 net.cpp:391] zoom_ReLU1_itr1 -> zoom_conv1_itr1 (in-place)
I0814 08:07:37.410606 28599 net.cpp:144] Setting up zoom_ReLU1_itr1
I0814 08:07:37.410625 28599 net.cpp:151] Top shape: 1 64 192 384 (4718592)
I0814 08:07:37.410629 28599 net.cpp:159] Memory required for data: 307354608
I0814 08:07:37.410631 28599 layer_factory.hpp:77] Creating layer zoom_conv1b_itr1
I0814 08:07:37.410640 28599 net.cpp:91] Creating Layer zoom_conv1b_itr1
I0814 08:07:37.410643 28599 net.cpp:432] zoom_conv1b_itr1 <- zoom_conv1_itr1
I0814 08:07:37.410650 28599 net.cpp:404] zoom_conv1b_itr1 -> zoom_conv1b_itr1
I0814 08:07:37.413209 28599 net.cpp:144] Setting up zoom_conv1b_itr1
I0814 08:07:37.413223 28599 net.cpp:151] Top shape: 1 64 192 384 (4718592)
I0814 08:07:37.413225 28599 net.cpp:159] Memory required for data: 326228976
I0814 08:07:37.413231 28599 layer_factory.hpp:77] Creating layer zoom_ReLU1b_itr1
I0814 08:07:37.413238 28599 net.cpp:91] Creating Layer zoom_ReLU1b_itr1
I0814 08:07:37.413241 28599 net.cpp:432] zoom_ReLU1b_itr1 <- zoom_conv1b_itr1
I0814 08:07:37.413245 28599 net.cpp:391] zoom_ReLU1b_itr1 -> zoom_conv1b_itr1 (in-place)
I0814 08:07:37.413384 28599 net.cpp:144] Setting up zoom_ReLU1b_itr1
I0814 08:07:37.413390 28599 net.cpp:151] Top shape: 1 64 192 384 (4718592)
I0814 08:07:37.413393 28599 net.cpp:159] Memory required for data: 345103344
I0814 08:07:37.413396 28599 layer_factory.hpp:77] Creating layer zoom_conv1b_itr1_zoom_ReLU1b_itr1_0_split
I0814 08:07:37.413401 28599 net.cpp:91] Creating Layer zoom_conv1b_itr1_zoom_ReLU1b_itr1_0_split
I0814 08:07:37.413404 28599 net.cpp:432] zoom_conv1b_itr1_zoom_ReLU1b_itr1_0_split <- zoom_conv1b_itr1
I0814 08:07:37.413408 28599 net.cpp:404] zoom_conv1b_itr1_zoom_ReLU1b_itr1_0_split -> zoom_conv1b_itr1_zoom_ReLU1b_itr1_0_split_0
I0814 08:07:37.413414 28599 net.cpp:404] zoom_conv1b_itr1_zoom_ReLU1b_itr1_0_split -> zoom_conv1b_itr1_zoom_ReLU1b_itr1_0_split_1
I0814 08:07:37.413450 28599 net.cpp:144] Setting up zoom_conv1b_itr1_zoom_ReLU1b_itr1_0_split
I0814 08:07:37.413455 28599 net.cpp:151] Top shape: 1 64 192 384 (4718592)
I0814 08:07:37.413457 28599 net.cpp:151] Top shape: 1 64 192 384 (4718592)
I0814 08:07:37.413460 28599 net.cpp:159] Memory required for data: 382852080
I0814 08:07:37.413462 28599 layer_factory.hpp:77] Creating layer zoom_conv2_itr1
I0814 08:07:37.413470 28599 net.cpp:91] Creating Layer zoom_conv2_itr1
I0814 08:07:37.413473 28599 net.cpp:432] zoom_conv2_itr1 <- zoom_conv1b_itr1_zoom_ReLU1b_itr1_0_split_0
I0814 08:07:37.413478 28599 net.cpp:404] zoom_conv2_itr1 -> zoom_conv2_itr1
I0814 08:07:37.415771 28599 net.cpp:144] Setting up zoom_conv2_itr1
I0814 08:07:37.415782 28599 net.cpp:151] Top shape: 1 64 96 192 (1179648)
I0814 08:07:37.415786 28599 net.cpp:159] Memory required for data: 387570672
I0814 08:07:37.415792 28599 layer_factory.hpp:77] Creating layer zoom_ReLU2_itr1
I0814 08:07:37.415797 28599 net.cpp:91] Creating Layer zoom_ReLU2_itr1
I0814 08:07:37.415802 28599 net.cpp:432] zoom_ReLU2_itr1 <- zoom_conv2_itr1
I0814 08:07:37.415805 28599 net.cpp:391] zoom_ReLU2_itr1 -> zoom_conv2_itr1 (in-place)
I0814 08:07:37.415940 28599 net.cpp:144] Setting up zoom_ReLU2_itr1
I0814 08:07:37.415946 28599 net.cpp:151] Top shape: 1 64 96 192 (1179648)
I0814 08:07:37.415949 28599 net.cpp:159] Memory required for data: 392289264
I0814 08:07:37.415952 28599 layer_factory.hpp:77] Creating layer zoom_conv2b_itr1
I0814 08:07:37.415961 28599 net.cpp:91] Creating Layer zoom_conv2b_itr1
I0814 08:07:37.415963 28599 net.cpp:432] zoom_conv2b_itr1 <- zoom_conv2_itr1
I0814 08:07:37.415968 28599 net.cpp:404] zoom_conv2b_itr1 -> zoom_conv2b_itr1
I0814 08:07:37.418089 28599 net.cpp:144] Setting up zoom_conv2b_itr1
I0814 08:07:37.418099 28599 net.cpp:151] Top shape: 1 64 96 192 (1179648)
I0814 08:07:37.418102 28599 net.cpp:159] Memory required for data: 397007856
I0814 08:07:37.418107 28599 layer_factory.hpp:77] Creating layer zoom_ReLU2b_itr1
I0814 08:07:37.418112 28599 net.cpp:91] Creating Layer zoom_ReLU2b_itr1
I0814 08:07:37.418115 28599 net.cpp:432] zoom_ReLU2b_itr1 <- zoom_conv2b_itr1
I0814 08:07:37.418119 28599 net.cpp:391] zoom_ReLU2b_itr1 -> zoom_conv2b_itr1 (in-place)
I0814 08:07:37.418602 28599 net.cpp:144] Setting up zoom_ReLU2b_itr1
I0814 08:07:37.418611 28599 net.cpp:151] Top shape: 1 64 96 192 (1179648)
I0814 08:07:37.418613 28599 net.cpp:159] Memory required for data: 401726448
I0814 08:07:37.418617 28599 layer_factory.hpp:77] Creating layer zoom_deconv2_itr1
I0814 08:07:37.418622 28599 net.cpp:91] Creating Layer zoom_deconv2_itr1
I0814 08:07:37.418625 28599 net.cpp:432] zoom_deconv2_itr1 <- zoom_conv2b_itr1
I0814 08:07:37.418630 28599 net.cpp:404] zoom_deconv2_itr1 -> zoom_deconv2_itr1
I0814 08:07:37.420037 28599 net.cpp:144] Setting up zoom_deconv2_itr1
I0814 08:07:37.420049 28599 net.cpp:151] Top shape: 1 64 192 384 (4718592)
I0814 08:07:37.420053 28599 net.cpp:159] Memory required for data: 420600816
I0814 08:07:37.420063 28599 layer_factory.hpp:77] Creating layer zoom_ReLU0p_itr1
I0814 08:07:37.420069 28599 net.cpp:91] Creating Layer zoom_ReLU0p_itr1
I0814 08:07:37.420073 28599 net.cpp:432] zoom_ReLU0p_itr1 <- zoom_deconv2_itr1
I0814 08:07:37.420078 28599 net.cpp:391] zoom_ReLU0p_itr1 -> zoom_deconv2_itr1 (in-place)
I0814 08:07:37.420248 28599 net.cpp:144] Setting up zoom_ReLU0p_itr1
I0814 08:07:37.420264 28599 net.cpp:151] Top shape: 1 64 192 384 (4718592)
I0814 08:07:37.420267 28599 net.cpp:159] Memory required for data: 439475184
I0814 08:07:37.420270 28599 layer_factory.hpp:77] Creating layer zoom_Concat2_itr1
I0814 08:07:37.420275 28599 net.cpp:91] Creating Layer zoom_Concat2_itr1
I0814 08:07:37.420279 28599 net.cpp:432] zoom_Concat2_itr1 <- zoom_conv1b_itr1_zoom_ReLU1b_itr1_0_split_1
I0814 08:07:37.420282 28599 net.cpp:432] zoom_Concat2_itr1 <- zoom_deconv2_itr1
I0814 08:07:37.420286 28599 net.cpp:432] zoom_Concat2_itr1 <- upsampled_disparity2x_itr1
I0814 08:07:37.420290 28599 net.cpp:404] zoom_Concat2_itr1 -> zoom_concat2_itr1
I0814 08:07:37.420315 28599 net.cpp:144] Setting up zoom_Concat2_itr1
I0814 08:07:37.420320 28599 net.cpp:151] Top shape: 1 129 192 384 (9510912)
I0814 08:07:37.420322 28599 net.cpp:159] Memory required for data: 477518832
I0814 08:07:37.420325 28599 layer_factory.hpp:77] Creating layer zoom_fused1_itr1
I0814 08:07:37.420332 28599 net.cpp:91] Creating Layer zoom_fused1_itr1
I0814 08:07:37.420336 28599 net.cpp:432] zoom_fused1_itr1 <- zoom_concat2_itr1
I0814 08:07:37.420339 28599 net.cpp:404] zoom_fused1_itr1 -> zoom_fused1_itr1
I0814 08:07:37.423529 28599 net.cpp:144] Setting up zoom_fused1_itr1
I0814 08:07:37.423548 28599 net.cpp:151] Top shape: 1 64 192 384 (4718592)
I0814 08:07:37.423566 28599 net.cpp:159] Memory required for data: 496393200
I0814 08:07:37.423575 28599 layer_factory.hpp:77] Creating layer zoom_deconv1_itr1
I0814 08:07:37.423584 28599 net.cpp:91] Creating Layer zoom_deconv1_itr1
I0814 08:07:37.423588 28599 net.cpp:432] zoom_deconv1_itr1 <- zoom_fused1_itr1
I0814 08:07:37.423594 28599 net.cpp:404] zoom_deconv1_itr1 -> zoom_deconv1_itr1
I0814 08:07:37.424793 28599 net.cpp:144] Setting up zoom_deconv1_itr1
I0814 08:07:37.424818 28599 net.cpp:151] Top shape: 1 32 384 768 (9437184)
I0814 08:07:37.424821 28599 net.cpp:159] Memory required for data: 534141936
I0814 08:07:37.424827 28599 layer_factory.hpp:77] Creating layer zoom_ReLU1p_itr1
I0814 08:07:37.424835 28599 net.cpp:91] Creating Layer zoom_ReLU1p_itr1
I0814 08:07:37.424839 28599 net.cpp:432] zoom_ReLU1p_itr1 <- zoom_deconv1_itr1
I0814 08:07:37.424844 28599 net.cpp:391] zoom_ReLU1p_itr1 -> zoom_deconv1_itr1 (in-place)
I0814 08:07:37.425453 28599 net.cpp:144] Setting up zoom_ReLU1p_itr1
I0814 08:07:37.425464 28599 net.cpp:151] Top shape: 1 32 384 768 (9437184)
I0814 08:07:37.425467 28599 net.cpp:159] Memory required for data: 571890672
I0814 08:07:37.425472 28599 layer_factory.hpp:77] Creating layer zoom_Concat1_itr1
I0814 08:07:37.425477 28599 net.cpp:91] Creating Layer zoom_Concat1_itr1
I0814 08:07:37.425482 28599 net.cpp:432] zoom_Concat1_itr1 <- zoom_conv0_itr1_zoom_ReLU0_itr1_0_split_1
I0814 08:07:37.425487 28599 net.cpp:432] zoom_Concat1_itr1 <- zoom_deconv1_itr1
I0814 08:07:37.425490 28599 net.cpp:432] zoom_Concat1_itr1 <- upsampled_disparity_itr1_half_upsample_disparity_itr1_half_0_split_0
I0814 08:07:37.425495 28599 net.cpp:404] zoom_Concat1_itr1 -> zoom_concat1_itr1
I0814 08:07:37.425534 28599 net.cpp:144] Setting up zoom_Concat1_itr1
I0814 08:07:37.425539 28599 net.cpp:151] Top shape: 1 65 384 768 (19169280)
I0814 08:07:37.425540 28599 net.cpp:159] Memory required for data: 648567792
I0814 08:07:37.425544 28599 layer_factory.hpp:77] Creating layer zoom_fused0_itr1
I0814 08:07:37.425552 28599 net.cpp:91] Creating Layer zoom_fused0_itr1
I0814 08:07:37.425555 28599 net.cpp:432] zoom_fused0_itr1 <- zoom_concat1_itr1
I0814 08:07:37.425560 28599 net.cpp:404] zoom_fused0_itr1 -> zoom_fused0_itr1
I0814 08:07:37.427413 28599 net.cpp:144] Setting up zoom_fused0_itr1
I0814 08:07:37.427436 28599 net.cpp:151] Top shape: 1 32 384 768 (9437184)
I0814 08:07:37.427439 28599 net.cpp:159] Memory required for data: 686316528
I0814 08:07:37.427448 28599 layer_factory.hpp:77] Creating layer zoom_Convolution0_itr1
I0814 08:07:37.427462 28599 net.cpp:91] Creating Layer zoom_Convolution0_itr1
I0814 08:07:37.427469 28599 net.cpp:432] zoom_Convolution0_itr1 <- zoom_fused0_itr1
I0814 08:07:37.427474 28599 net.cpp:404] zoom_Convolution0_itr1 -> zoom_predict0_itr1
I0814 08:07:37.430027 28599 net.cpp:144] Setting up zoom_Convolution0_itr1
I0814 08:07:37.430050 28599 net.cpp:151] Top shape: 1 1 384 768 (294912)
I0814 08:07:37.430053 28599 net.cpp:159] Memory required for data: 687496176
I0814 08:07:37.430063 28599 layer_factory.hpp:77] Creating layer zoom_ReLU_predict_itr1
I0814 08:07:37.430071 28599 net.cpp:91] Creating Layer zoom_ReLU_predict_itr1
I0814 08:07:37.430075 28599 net.cpp:432] zoom_ReLU_predict_itr1 <- zoom_predict0_itr1
I0814 08:07:37.430080 28599 net.cpp:404] zoom_ReLU_predict_itr1 -> zoom_predict0n_itr1
I0814 08:07:37.430997 28599 net.cpp:144] Setting up zoom_ReLU_predict_itr1
I0814 08:07:37.431008 28599 net.cpp:151] Top shape: 1 1 384 768 (294912)
I0814 08:07:37.431011 28599 net.cpp:159] Memory required for data: 688675824
I0814 08:07:37.431023 28599 layer_factory.hpp:77] Creating layer zoom_disp_loss0
I0814 08:07:37.431030 28599 net.cpp:91] Creating Layer zoom_disp_loss0
I0814 08:07:37.431033 28599 net.cpp:432] zoom_disp_loss0 <- zoom_predict0n_itr1
I0814 08:07:37.431047 28599 net.cpp:432] zoom_disp_loss0 <- disp_gt_aug_norm_disp_gt_aug_norm_0_split_2
…
